planr_grasp_ggcnn/ggcnn2_weights_cornell/epoch_50_cornell_statedict.pt (torch_old, 270922 bytes, 20 tensors)

features.0.weight f4 [16, 1, 11, 11]
0	0xbccabb19	-0.024747418
1	0x3d07c0e3	0.033142935
2	0x3d008b13	0.03138263
3	0x3d572fca	0.05253581
4	0x3db1adea	0.086757496
5	0x3dacd6f4	0.084394366
6	0x3d97d3e7	0.07413464
7	0x3d5baf99	0.05363426
8	0x3c8efc15	0.017454186
9	0x3da25c6d	0.07927785
10	0x3cc8eb74	0.024526335
11	0x3a9af773	0.0011823013
12	0x3d20c599	0.039250944
13	0x3c878990	0.016545087
14	0x3cd6c589	0.026217239
15	0x3d28ce54	0.041212395
16	0x3c896639	0.016772376
17	0x3dbc2c70	0.09188163
18	0x3da0fd5b	0.07860824
19	0x3ce84b93	0.02835635
20	0x3cde4ba3	0.027135676
21	0x3da6e717	0.08149546
22	0xbd42b917	-0.047539797
23	0x3d8261dd	0.06366322
24	0xbc12a681	-0.00895083
25	0x3d8494e4	0.06473711
26	0x3d75231d	0.05984794
27	0x3de4b314	0.11166969
28	0x3de1ecf5	0.11031524
29	0x3d48555a	0.048909523
30	0x3c753962	0.014967294
31	0x3dc5b2a3	0.09653213
32	0x3cbfb5a5	0.023402045
33	0x3c803bc5	0.0156535
34	0xbca8a10f	-0.020584611
35	0x3d1ed10e	0.03877359
36	0x3c579bbf	0.013159691
37	0x3d425612	0.047445364
38	0x3d93aa34	0.07210198
39	0x3d8ead82	0.06966688
40	0x3ced3102	0.028954033
41	0x3cc424fe	0.02394342
42	0x38fda8fd	0.000120954566
43	0x3d8f9f45	0.070128
44	0xbcf50959	-0.029911684
45	0x3cf1a596	0.029497903
46	0x3dae038c	0.0849677
47	0x3c974515	0.018465558
48	0x3cec61a0	0.028855145
49	0x3d47a8d3	0.048744988
50	0x3cd374cd	0.02581253
51	0x3db021e4	0.08600214
52	0x3d7b04b3	0.06128378
53	0xbb00c6b0	-0.0019649677
54	0x3d76f02a	0.060287632
55	0x3d15dc62	0.036587127
56	0xbcba9a6a	-0.022778708
57	0x3d20989d	0.039208043
58	0x3ce67ecc	0.028136633
59	0x3dbaa642	0.091137424
60	0x3d988c2a	0.07448609
61	0x3ca0c5df	0.019625602
62	0x3c4c263c	0.012460288
63	0x3b29c4c0	0.0025904626
64	0x3d11becf	0.03558236
65	0xbcceb81b	-0.025234273
66	0x3d997183	0.07492354
67	0x3dacbcee	0.08434473
68	0x3a6c7fc3	0.00090217235
69	0x3b96262e	0.004582188
70	0x3d32b4f9	0.04362962
71	0x3d439227	0.047746804
72	0x3d9f9c87	0.07793527
73	0x3cf2ac90	0.0296233
74	0x3b378f41	0.002800897
75	0x3d497d58	0.049191803
76	0xbd319cd4	-0.043362454
77	0xbc964393	-0.018342769
78	0x3d229c3f	0.03969979
79	0x3d0f56d8	0.03499493
80	0x3d473dce	0.048642926
81	0x3d55f363	0.052234065
82	0x3d820f52	0.06350578
83	0x3c458ecb	0.01205797
84	0x3ae225bd	0.0017253679
85	0xbca420cb	-0.020035168
86	0x3d2e4f32	0.042555995
87	0xbcb21707	-0.021739496
88	0x3cb0854d	0.021547938
89	0xbc09f315	-0.008419772
90	0x3d68c1f3	0.05682559
91	0x3da64429	0.08118469
92	0x3cd85c00	0.026411057
93	0x3d84eb1d	0.06490157
94	0x3d2fe4e9	0.042942915
95	0x3d5b40dc	0.05352865
96	0x3cf1764e	0.029475357
97	0xbb58bdfe	-0.0033072229
98	0xbd843a65	-0.064564504
99	0x3c94381e	0.018093165
100	0x3daeab88	0.08528811
101	0x3b6d3af7	0.0036198476
102	0x3d550c83	0.052013885
103	0x3c856613	0.016284024
104	0x3d1c7a0c	0.03820233
105	0x3d8fcda5	0.070216455
106	0x3b0dac9b	0.0021617773
107	0xbb69ea4d	-0.0035692633
108	0xbd594593	-0.053044867
109	0xbd7732ce	-0.060351186
110	0x3c3b6985	0.011438732
111	0x3c98bf28	0.018645838
112	0x3cf4ddca	0.029890914
113	0x3bedb7f8	0.007254597
114	0x3d32ac37	0.043621268
115	0x3d1f63e2	0.038913615
116	0x3b8521d7	0.004062872
117	0xbd2f5221	-0.042802934
118	0xbcaff257	-0.021477861
119	0xbd221c69	-0.039577875
120	0xbdeb3fbe	-0.11486767
121	0xbcf2ba05	-0.029629717
122	0xbc90aeb7	-0.017661436
123	0x3d3a9360	0.045550704
124	0x3d8ba4c0	0.06818533
125	0x3d1da282	0.038485058
126	0x3d78b901	0.06072331
127	0x3d9dc3f0	0.07703388
128	0x3c25adf3	0.0101122735
129	0xbd3a159a	-0.045430757
130	0xbcf7fd75	-0.030272225
131	0xbd128bff	-0.035778042
132	0xbd3a48e6	-0.045479678
133	0xbc85e00e	-0.01634219
134	0xbcf83474	-0.03029845
135	0xbd096ec8	-0.033552915
136	0x3d15e198	0.036592096
137	0x3bce9730	0.006304644
138	0x3d4ef2ec	0.050524637
139	0x3c569909	0.01309801
140	0xbde1d353	-0.11026635
141	0xbde9943a	-0.11405225
142	0xbdcbae31	-0.09945334
143	0xbda291d2	-0.07937969
144	0xbd0549a6	-0.03254094
145	0x3c3b0106	0.011413818
146	0x38de4f7d	0.00010600591
147	0x3d20806e	0.03918498
148	0x3d446c85	0.047955055
149	0x3d716672	0.05893559
150	0xbca43d27	-0.020048691
151	0xbda250f8	-0.079256
152	0xbd0e1f97	-0.034698095
153	0xbdbd8443	-0.092537425
154	0xbb7cad05	-0.0038555276
155	0xbd7a89b6	-0.061166488
156	0x3d8eee21	0.06979013
157	0xbcdb974d	-0.026805544
158	0x3cb395e0	0.021922052
159	0x3d82e166	0.063906476
160	0x3de646aa	0.11243947
161	0xbc50142a	-0.01270012
162	0xbdcdab08	-0.10042387
163	0xbc8ef5b5	-0.017451147
164	0xbcaa85fb	-0.02081584
165	0xbcebc7d7	-0.028781815
166	0x3c8499a2	0.01618654
167	0x3d808351	0.062750466
168	0x3bf14f3a	0.007364181
169	0xbb36a956	-0.0027871928
170	0x3c2cb0cd	0.0105401995
171	0x3dd88ff1	0.1057433
172	0xbcb9398a	-0.022610445
173	0xbdbc7462	-0.09201886
174	0xbb25ce6d	-0.0025300041
175	0xbc9c4383	-0.01907516
176	0xbd0ad81f	-0.033897515
177	0xbd44c758	-0.04804167
178	0xbcd141f7	-0.02554415
179	0x3cc933fa	0.024560917
180	0xbcc0f751	-0.02355543
181	0x3d77c01b	0.06048594
182	0x3d8e8eb8	0.06960815
183	0x3d25b0e4	0.0404519
184	0xbde47bde	-0.11156438
185	0xbd9f3bac	-0.077750534
186	0xbcc1b7d6	-0.02364723
187	0xbcf52898	-0.029926583
188	0x3ca0cd41	0.019629123
189	0x3d8f395d	0.06993363
190	0x3d90442e	0.07044254
191	0xbca7b266	-0.02047081
192	0x3da57cd2	0.08080448
193	0x3d6589a3	0.056039464
194	0x3c5c357c	0.013440486
195	0xbdc685a6	-0.0969346
196	0xbd82b1c0	-0.06381559
197	0xbc5522b2	-0.01300876
198	0xbd86f78e	-0.06590186
199	0xbd629262	-0.055315383
200	0x3bcbe5cc	0.0062224623
201	0xbc7bc836	-0.015367558
202	0x3b1f409b	0.0024299982
203	0x3ddf4417	0.10901659
204	0x3dd33b06	0.10313992
205	0x3d510255	0.051027615
206	0xbd8ae3a8	-0.06781703
207	0xbc9d4a50	-0.019200474
208	0xbd5565a1	-0.052098874
209	0x3d090923	0.03345598
210	0xbd7eaf42	-0.062178858
211	0x3d5cacec	0.05387585
212	0x3ccc64d0	0.024950415
213	0x3c17ae5a	0.009257877
214	0x3da1ead2	0.079061165
215	0x3dd01bae	0.101615295
216	0x3c8f72a9	0.017510729
217	0xbdba1f5c	-0.090880126
218	0xbaab040e	-0.0013047473
219	0x3c5f98be	0.013647256
220	0xbd77485a	-0.060371734
221	0xbd096e30	-0.03355235
222	0x3d2f0d3c	0.04273723
223	0x3c42d96d	0.011892659
224	0x3c939482	0.01801515
225	0x3c76086a	0.0150166545
226	0x3c8f0db7	0.017462594
227	0x3d3fdfe5	0.04684438
228	0xbd963852	-0.07334961
229	0xbd3ab14f	-0.04557925
230	0xbd8cc0d5	-0.06872717
231	0x3d209b4e	0.03921061
232	0xbd324bb3	-0.043529224
233	0xbc7625bb	-0.015023644
234	0xbca2242d	-0.01979264
235	0xbd0e899c	-0.034799203
236	0x3d0283ba	0.031863905
237	0x3b90b001	0.0044155126
238	0xbd553468	-0.05205193
239	0xbda22663	-0.07917478
240	0xbd040901	-0.03223515
241	0xbd27deb3	-0.040983867
242	0x3ce5823e	0.028016206
243	0x3dd15429	0.102211304
244	0x3d266fb9	0.04063389
245	0x3cbe38ce	0.023220446
246	0x3dc34e76	0.095364496
247	0x3d5a2a00	0.05326271
248	0x3dbe4a73	0.09291544
249	0x3da6d515	0.08146111
250	0x3d760475	0.060062844
251	0x3e2409d3	0.16019373
252	0x3e1594f6	0.14607605
253	0x3ddaa24f	0.10675489
254	0x3d805989	0.062670775
255	0x3ca8a9cb	0.020588776

features.0.bias f4 [16]
0	0x3f347471	0.70490175
1	0xbe9aa133	-0.3020111
2	0xbf320d62	-0.6955167
3	0xbe50dbf0	-0.203964
4	0xbe38b498	-0.18037641
5	0xbecbd227	-0.3980877
6	0xbe9803c3	-0.2969037
7	0xbe67f402	-0.22651675
8	0xbe9ccf30	-0.30626822
9	0x3e0059a2	0.12534192
10	0xbe980432	-0.296907
11	0xbe4b5a77	-0.19858728
12	0xbed3743b	-0.41299614
13	0xbe5e7e0d	-0.21727772
14	0xbe50e8f5	-0.20401366
15	0xbde5e096	-0.11224477

features.2.weight f4 [16, 16, 5, 5]
0	0xbe01c095	-0.1267112
1	0xbe24bdcc	-0.16088027
2	0xbde11164	-0.10989645
3	0xbdcd3a23	-0.10020854
4	0xbe46a5d1	-0.19399191
5	0xbe3ebb06	-0.18626031
6	0xbe178e18	-0.14800298
7	0xbdef1915	-0.11674706
8	0xbe1ccc0e	-0.15312216
9	0xbd57beec	-0.05267231
10	0x3da5ced0	0.08096087
11	0x3d876890	0.066117406
12	0x3decf3f1	0.11569966
13	0x3d5ea641	0.05435777
14	0x3cdf6b8b	0.02727296
15	0xbcacdc19	-0.021101044
16	0x3d7de271	0.06198353
17	0x3d2a6329	0.041598473
18	0x3bf17af2	0.0073693926
19	0xbdc8837b	-0.09790703
20	0xbc3cd8a7	-0.011526263
21	0xbc3149e3	-0.010820839
22	0xbd5a760d	-0.05333524
23	0xbdb820dc	-0.089906424
24	0xbc822a9f	-0.015889464
25	0xbdc98ff6	-0.098419115
26	0xbd228a61	-0.03968275
27	0xbd0a618d	-0.033784438
28	0xbda30c5a	-0.0796134
29	0xbe149209	-0.14508833
30	0xbd2ffe79	-0.042967293
31	0xbe04fa95	-0.12986214
32	0x3d90ec89	0.070763655
33	0xbe7bd1ce	-0.24591753
34	0xbe343593	-0.17598562
35	0x3d55b4e1	0.052174453
36	0x3d0c052f	0.03418463
37	0x3cbd48fb	0.023106089
38	0x3d94b077	0.072602205
39	0x3d09e709	0.033667598
40	0x3d5ca785	0.053870697
41	0x3ca10208	0.019654289
42	0x3ca59e3c	0.020217054
43	0xbccd69d9	-0.025074886
44	0xbd4c246a	-0.049839415
45	0xbd36c225	-0.044618744
46	0xbd51121e	-0.05104267
47	0x3d6f64cb	0.058445733
48	0xbdfd145d	-0.123573996
49	0xbd3441d8	-0.044008106
50	0xbd9d783a	-0.07688947
51	0xbdb85f8e	-0.090026006
52	0xbe168158	-0.14697778
53	0xbda19023	-0.0788882
54	0xbddd6207	-0.10809713
55	0xbdfdd844	-0.12394765
56	0xbe09ecfd	-0.1346931
57	0xbd9be2d2	-0.07611622
58	0xbe8ef823	-0.27923688
59	0xbe1ab6c9	-0.1510879
60	0xbe67d38b	-0.22639291
61	0xbdb6e00f	-0.089294545
62	0xbea21a2a	-0.31660587
63	0xbed8a46a	-0.42312938
64	0xbe6075f5	-0.21919997
65	0xbe6dd922	-0.23227361
66	0xbe60f92f	-0.21970056
67	0xbee495e5	-0.4464561
68	0xbee6088f	-0.44928405
69	0xbe78feb2	-0.24315909
70	0xbf21feb7	-0.6327929
71	0xbf3d3aee	-0.73918045
72	0xbf2af1e1	-0.6677533
73	0xbf3dd0b7	-0.741466
74	0xbf195489	-0.59894615
75	0xbd7c534c	-0.061602876
76	0x3db885e0	0.0900991
77	0x3d1704c3	0.036869776
78	0xbc2ee714	-0.0106752105
79	0xbdc136fd	-0.09434316
80	0xbab8a186	-0.0014086224
81	0xbc4258f6	-0.01186203
82	0x3d8c5198	0.068515
83	0xbb90b357	-0.00441591
84	0xbb8489a1	-0.004044727
85	0x3dc31ea7	0.09527331
86	0xbd118061	-0.035522822
87	0xbd12f82f	-0.035881218
88	0xbccb8d48	-0.024847642
89	0x3d8859ef	0.066577785
90	0x3d3a2002	0.04544068
91	0x3e3a964c	0.18221396
92	0x3c78862d	0.015168709
93	0x3d939fe2	0.072082296
94	0x3e0c2f35	0.13689883
95	0x3e140bd8	0.14457643
96	0x3e42bab9	0.19016542
97	0x3dce28d9	0.10066385
98	0x3d8d0dff	0.06887435
99	0x3cd6fabc	0.026242606
100	0xbdf29e56	-0.118466064
101	0xbc7ec4d2	-0.015549855
102	0x3e563217	0.20917545
103	0x3a336b7b	0.0006844324
104	0x3be6333b	0.00702515
105	0xbd95bf58	-0.073118865
106	0x3d933cc8	0.071893275
107	0x3e229ad6	0.15879378
108	0xbd8fe490	-0.07026017
109	0x3d5218da	0.05129323
110	0xbdd79d26	-0.105280206
111	0xbd1334cc	-0.035939023
112	0x3e0f476a	0.13992086
113	0xbdde8438	-0.108650625
114	0xbcc17475	-0.023615101
115	0xbda6c82c	-0.081436485
116	0x3cc6ef2a	0.024283964
117	0x3dd91b91	0.10600961
118	0xbdbd8abe	-0.092549786
119	0xbc7f77b0	-0.015592501
120	0xbdf9dd63	-0.12200429
121	0x3c74a629	0.014932194
122	0x3e019322	0.12653783
123	0x3ce3e608	0.027819648
124	0x3dce25a4	0.10065773
125	0x3e727331	0.23676755
126	0x3e6ee38d	0.23328991
127	0x3e0f4e45	0.13994701
128	0xbd4cc340	-0.049990892
129	0xbe580259	-0.21094646
130	0x3d99a252	0.07501663
131	0x3db5fc93	0.08886065
132	0x3dfacbde	0.12245916
133	0xbdc09a50	-0.09404433
134	0xbc831cee	-0.016005006
135	0xbc9175b4	-0.01775632
136	0xbdef79aa	-0.116931275
137	0xba8e4e69	-0.0010857108
138	0xbe104218	-0.14087713
139	0xbd0e97ef	-0.034812864
140	0x3939f046	0.00017732484
141	0xbd24594b	-0.04012422
142	0xbd85b549	-0.06528718
143	0xbdb5d0b8	-0.088777006
144	0xbc616c12	-0.013758676
145	0xbd557c2e	-0.05212038
146	0x3d9c9e96	0.07647435
147	0xbc835b55	-0.016034761
148	0x3cfea7b8	0.031085834
149	0x3de259f5	0.11052314
150	0x3dd5a4f3	0.10431852
151	0x3dd861d0	0.10565531
152	0x3d7cb636	0.061697207
153	0xbdbd97b8	-0.09257454
154	0x3d170c71	0.0368771
155	0x3d65dac4	0.056116834
156	0x39c5de85	0.00037740558
157	0xbd381af7	-0.04494759
158	0xbd8c8057	-0.068604164
159	0xbd2e9a3c	-0.042627558
160	0xbe0281d0	-0.12744832
161	0xbe1381f4	-0.14405042
162	0xbdd4c867	-0.10389786
163	0xbe711c57	-0.23545967
164	0xbe4dd79b	-0.20101778
165	0xbe06f7f0	-0.13180518
166	0xbe0e034a	-0.13868442
167	0xbe12b82f	-0.14328073
168	0xbdfa8724	-0.12232807
169	0xbe410765	-0.18850477
170	0x3cca71e0	0.024712503
171	0xbde8fe73	-0.11376657
172	0xbcedb338	-0.029016122
173	0xbdc2a6cd	-0.09504471
174	0xbe487487	-0.19575702
175	0xbdbda9f1	-0.092609294
176	0x3bf6fc3c	0.007537393
177	0x3d15361e	0.036428563
178	0x3d739a87	0.05947354
179	0x3cf1e849	0.029529708
180	0x3b8b9ae0	0.004260406
181	0xbdb86a40	-0.090046406
182	0xbda52827	-0.08064299
183	0xbc8bf5ad	-0.01708492
184	0x3d3c2a7a	0.045938946
185	0xbde32497	-0.11090963
186	0x3d626733	0.0552742
187	0x3d11d9fd	0.03560828
188	0x3c8335ce	0.016016867
189	0x3c9dd192	0.01926497
190	0xbceff206	-0.02929021
191	0xbd359822	-0.04433454
192	0xbae75c7d	-0.0017651465
193	0xbc8eb76e	-0.01742145
194	0x3d326220	0.04355061
195	0xbd762ae2	-0.06009949
196	0x3c2bc7cd	0.010484648
197	0xbd4a48e8	-0.049385935
198	0xbdb77d0b	-0.08959397
199	0xbd35690c	-0.044289634
200	0x3d384d89	0.04499582
201	0x3d1f4236	0.038881503
202	0xbc776c39	-0.015101486
203	0x3bd6d472	0.006556087
204	0xbd447ac9	-0.04796866
205	0x3d27ebb4	0.04099627
206	0x3d89fc0a	0.06737526
207	0x3d6354de	0.055500858
208	0x3cde54f3	0.027140116
209	0xbc0c2a3e	-0.008554993
210	0xbe37a5f1	-0.17934395
211	0xbd5b1340	-0.053485155
212	0xbdfaa170	-0.12237823
213	0xbd8c4c0d	-0.06850443
214	0xbda6dcf1	-0.0814761
215	0xbe9a07ac	-0.30083978
216	0xbe618e30	-0.22026896
217	0xbe72a96c	-0.23697442
218	0xbe848e0c	-0.25889623
219	0xbe838b62	-0.25692278
220	0xbe219a34	-0.1578148
221	0xbe82d460	-0.25552654
222	0xbe026fb8	-0.1273793
223	0xbe05e5f9	-0.13076009
224	0xbe03b50c	-0.12862033
225	0xbde05234	-0.10953179
226	0xbdd90a93	-0.1059772
227	0xbd89889d	-0.0671551
228	0xbe8e4cc1	-0.27792934
229	0xbea5524b	-0.32289347
230	0xbdec0fc9	-0.11526448
231	0xbcf6c75e	-0.030124363
232	0xbd669da0	-0.056302667
233	0xbe9ed0e3	-0.31018743
234	0xbe80c2d3	-0.2514864
235	0x3db8f91a	0.09031887
236	0x3d95cd9d	0.07314608
237	0x3e0a2a21	0.13492633
238	0xbd821634	-0.06351891
239	0xbd0c179b	-0.0342022
240	0x3c8da324	0.017289706
241	0x3e2e1aaa	0.17002359
242	0x3e1c99ca	0.15293041
243	0x3b88ed64	0.00417869
244	0x3d07153c	0.032979235
245	0x3e14046e	0.14454815
246	0x3d7674af	0.060169872
247	0x3e1f4132	0.15552214
248	0x3c8b51ee	0.01700684
249	0xbda17358	-0.07883328
250	0xbdc91e27	-0.09820204
251	0xbe161b4d	-0.14658852
252	0xbd91d423	-0.0712054
253	0xbe138413	-0.14405851
254	0xbe1abe44	-0.15111643
255	0xbe1a6e76	-0.150812

features.2.bias f4 [16]
0	0x3d976a9e	0.073933825
1	0xbd8a8931	-0.067644484
2	0xbd1589ef	-0.036508497
3	0xbcae0178	-0.021240935
4	0xbe122a1e	-0.14273879
5	0x3c60e42c	0.013726275
6	0xbe94234a	-0.28933173
7	0x3c92dd6f	0.017927853
8	0x3cafb764	0.021449752
9	0xbd722eea	-0.059126772
10	0xbdc59015	-0.09646622
11	0x3c4a7b23	0.01235846
12	0xbd3db064	-0.046310797
13	0x3d3efb91	0.04662663
14	0xbb855e86	-0.004070106
15	0x3d5784be	0.052616827

features.5.weight f4 [16, 16, 5, 5]
0	0xbdeabe59	-0.11462087
1	0xbbaf4894	-0.005349228
2	0x3e40f85e	0.18844745
3	0x3e54dd4f	0.20787548
4	0x3eb0ca0a	0.34529144
5	0x3cf7f544	0.030268319
6	0x3d903164	0.070406705
7	0xbdef50b5	-0.116853155
8	0xbc88a1c0	-0.01667869
9	0xbd38754f	-0.04503375
10	0xbe1e705d	-0.1547255
11	0xbe1bc228	-0.15210783
12	0x3e72cca3	0.23710875
13	0x3e871a1c	0.26387107
14	0xbdd609c9	-0.10451085
15	0x3e022eca	0.12713161
16	0x3d79dcce	0.06100159
17	0xbe2db192	-0.16962269
18	0xbcf98969	-0.03046103
19	0xbd804cf6	-0.06264679
20	0x3e16aa0b	0.14713304
21	0x3df4fbaa	0.119620636
22	0xbe800b85	-0.2500879
23	0x3d18633a	0.037204005
24	0x3b860bb1	0.004090749
25	0x3c8719c5	0.01649178
26	0xbd664b21	-0.056223992
27	0x3da42573	0.08014955
28	0xbd0e233c	-0.03470157
29	0x3ca617a7	0.02027495
30	0x3bd4fd82	0.006499947
31	0x3d72c8e6	0.059273623
32	0x3c61df19	0.013786101
33	0xbcf03ca6	-0.029325794
34	0x3b93e540	0.0045134127
35	0x3d8e6c93	0.06954303
36	0xbd25d5dc	-0.040487155
37	0x3d761503	0.060078632
38	0x3cabb586	0.02096058
39	0xbce807b5	-0.028323987
40	0x3ca19c73	0.019727921
41	0xbd877a72	-0.066151515
42	0x3dba20b4	0.09088269
43	0x3cc0db27	0.023542
44	0xbcf1125f	-0.029427705
45	0xbd752dc1	-0.059858087
46	0x3d2b62cf	0.041842278
47	0xbd970d7b	-0.07375618
48	0xbc696328	-0.014244832
49	0x3cdcd71f	0.026958046
50	0xbdc8cdae	-0.09804855
51	0x3d8140e8	0.06311208
52	0x3cd7ac80	0.026327372
53	0x3cea8241	0.028626563
54	0x3d131cd6	0.035916172
55	0xbd9c0c6c	-0.07619557
56	0xbdbf2586	-0.09333329
57	0x3d440504	0.047856346
58	0x3aa84261	0.0012837165
59	0xbd78a059	-0.060699794
60	0xbb2b65c0	-0.0026153177
61	0xbd5341e7	-0.05157652
62	0x3ce5e515	0.028063336
63	0xbc96330d	-0.01833489
64	0x3d08a3d7	0.033359375
65	0x3d249d0a	0.040188827
66	0x3cd1421c	0.025544219
67	0xbcb14269	-0.021638112
68	0xbd4dd38e	-0.050250582
69	0xbdc69828	-0.0969699
70	0x3be83234	0.007086063
71	0x3c7706ac	0.015077274
72	0xbd2de2cf	-0.04245263
73	0xbdd61664	-0.104534894
74	0xbc986292	-0.01860169
75	0xbc760723	-0.01501635
76	0xbd4bef05	-0.049788494
77	0x3ca1e4b4	0.019762374
78	0xbdcd4e71	-0.10024727
79	0xbc2a5210	-0.010395542
80	0xbd747e7a	-0.05969093
81	0x3beae6cc	0.0071686264
82	0x3d87c01f	0.06628441
83	0xbd804e43	-0.06264927
84	0xbb418e7d	-0.0029534393
85	0x3d81d10d	0.063387014
86	0xbd10f14e	-0.035386376
87	0xbb334a78	-0.002735762
88	0x3d30f054	0.043197945
89	0xbdcc883c	-0.09986922
90	0xbba98e16	-0.0051744087
91	0xbc676588	-0.014123328
92	0x3d102f87	0.035201576
93	0x3d4bd269	0.04976121
94	0xbdae898a	-0.08522327
95	0xbd958498	-0.07300681
96	0x3d5ef8e8	0.054436594
97	0x3c3ded79	0.011592262
98	0xbdc97b43	-0.098379634
99	0xbcbffbbb	-0.023435464
100	0xbd8413e0	-0.06449103
101	0xbd0c10d4	-0.034195736
102	0x3d02ed82	0.031964786
103	0xbde2286f	-0.11042868
104	0xbbf6aa4c	-0.007527625
105	0xbe31f0df	-0.17377041
106	0xbd6848bb	-0.056709986
107	0xbd68860a	-0.056768455
108	0xbe30465e	-0.17214343
109	0x3d9ce121	0.076601274
110	0xbe01d910	-0.12680459
111	0xbdebb182	-0.11508466
112	0xbe434dac	-0.19072598
113	0xbdabed15	-0.08394829
114	0x3dc2d83b	0.09513899
115	0xbe9413ee	-0.28921455
116	0xbd662feb	-0.056198042
117	0xbe68f11a	-0.22748223
118	0xbd2bc8ee	-0.04193967
119	0x3da01bd2	0.07817806
120	0xbe3f32f9	-0.18671788
121	0xbdc107bd	-0.09425304
122	0xbe7b473d	-0.24538894
123	0xbdec1ea5	-0.115292825
124	0xbd024bfd	-0.03181075
125	0x3d75d346	0.06001594
126	0xbdba5fac	-0.09100279
127	0x3cf75601	0.030192377
128	0x3d23ab44	0.039958254
129	0x3d242f44	0.04008414
130	0xbbe2778b	-0.0069112233
131	0xbc577498	-0.013150357
132	0xbd3cff1b	-0.046141725
133	0xbd1a6276	-0.037691556
134	0x3d87ba24	0.066273004
135	0x3d42cf53	0.047561
136	0x3d02602b	0.031829994
137	0xbdb4f518	-0.088358104
138	0x3c9699e8	0.018383935
139	0xbcbd76eb	-0.023127994
140	0x3cf58ed3	0.02997533
141	0x3d13e87f	0.036110397
142	0xbd1bf808	-0.038078338
143	0xbc44e5a1	-0.012017638
144	0xbd888b34	-0.06667176
145	0xbde04a93	-0.10951724
146	0x3b86cdcc	0.0041138884
147	0xbd427673	-0.047476243
148	0x3cd36e16	0.025809329
149	0xbdd2adbf	-0.10287046
150	0xbc369b51	-0.011145429
151	0x3dcc1755	0.09965388
152	0x3aa9a47b	0.0012942696
153	0xbd851d49	-0.06499726
154	0xbdf29058	-0.11843938
155	0x3e032f24	0.12810951
156	0x3d061d67	0.032742884
157	0x3df5a790	0.11994851
158	0x3d1ad2d9	0.037798736
159	0xbe02f694	-0.12789375
160	0x3cc4f696	0.024043363
161	0xbccf47cd	-0.025302792
162	0x3d5d6b0a	0.05405716
163	0xbb5bdff7	-0.0033550241
164	0xbd3043ea	-0.043033518
165	0xbb4fd80f	-0.0031714474
166	0x3d85d08f	0.0653392
167	0x3d7e90e5	0.0621499
168	0xbd866008	-0.06561285
169	0x3d6a3663	0.057180773
170	0xbdda4de6	-0.10659389
171	0xbda58821	-0.08082605
172	0xbdaceb35	-0.084433
173	0xbdf4b00d	-0.119476415
174	0xbd0c4388	-0.03424409
175	0x3db683e3	0.08911874
176	0xbd96de85	-0.07366661
177	0xbd915339	-0.070959516
178	0x3da2da50	0.07951796
179	0x3da9a80b	0.08284005
180	0xbd9b8455	-0.075936
181	0xbd04d75a	-0.032431938
182	0xbbf7065e	-0.007538601
183	0x3c3e8557	0.01162847
184	0x3d905d4f	0.07049047
185	0x3c7f5309	0.015583762
186	0xbd4fe6cb	-0.05075721
187	0x3c48eeb7	0.012263945
188	0xbd8e7a22	-0.06956889
189	0x3ce084b3	0.027407026
190	0x3dafeedb	0.0859048
191	0x3da49b19	0.08037395
192	0xbd272699	-0.040808294
193	0xbd17fa4a	-0.03710393
194	0x3ba739b1	0.005103313
195	0x3d396b81	0.04526854
196	0xbcedf9e7	-0.029049827
197	0x3db65196	0.0890228
198	0x3daf6bfd	0.08565519
199	0x3c8a238a	0.01686265
200	0x3d8fab4f	0.070150964
201	0xbd16fa9a	-0.036860086
202	0xbda97884	-0.0827494
203	0xbc4a2bcb	-0.012339543
204	0x3d8ffc96	0.07030599
205	0x3d6b6e61	0.057478312
206	0x3cf9cf14	0.03049425
207	0xbd8e1927	-0.06938391
208	0x3a902353	0.0010996856
209	0x3d4480e1	0.04797447
210	0x3caaa950	0.020832688
211	0x3d30de64	0.04318084
212	0x3c6d74b6	0.014493158
213	0xbd8511ff	-0.06497573
214	0xbc2591a7	-0.010105527
215	0xbd5d3606	-0.0540066
216	0x3d1fb0fa	0.038987137
217	0x3ce050e6	0.027382325
218	0xbcf8239c	-0.030290417
219	0x3c8dd25e	0.017312225
220	0xbbf235cc	-0.007391667
221	0x3bf9dfe4	0.007625567
222	0xbd947d17	-0.072504215
223	0xbcd168ff	-0.025562761
224	0x3c2f7eb0	0.010711357
225	0x3b99bf03	0.00469196
226	0xbcc3ec65	-0.023916433
227	0x3d4cab01	0.04996777
228	0xbccb86d7	-0.02484457
229	0x3d77a5f8	0.060461015
230	0xbd13204e	-0.03591948
231	0x3d076b94	0.03306158
232	0xbd184bb0	-0.037181556
233	0xbd924b19	-0.0714323
234	0x3dcb1ca7	0.099175744
235	0xbcbce2ec	-0.023057424
236	0xbd39436c	-0.045230314
237	0x3da02409	0.07819373
238	0x3c35deb4	0.01110046
239	0xbce5e41c	-0.028062873
240	0xbc070426	-0.008240735
241	0x3c7b8cbb	0.015353377
242	0xbc3c276a	-0.011484006
243	0xbc727b5d	-0.01479992
244	0x3d8719e3	0.065967344
245	0xbcbd9b6c	-0.0231454
246	0x3ccc1e7f	0.024916885
247	0x3cd0366f	0.025416581
248	0x3c89924d	0.016793394
249	0x3d9f4e2b	0.07778581
250	0xbc80858e	-0.015688684
251	0x3ba447fe	0.005013465
252	0x3cae1b91	0.021253379
253	0xbd02cbe7	-0.031932738
254	0xbd26abb3	-0.04069109
255	0xbd8afb5b	-0.067862235

features.5.bias f4 [16]
0	0xbe4d6abd	-0.20060249
1	0xbdd5c770	-0.1043843
2	0xbd2a50a2	-0.041580804
3	0xbdc88cc1	-0.09792472
4	0xbe2f1a84	-0.17099959
5	0xbcbb83e7	-0.022890044
6	0xbcce7875	-0.025203923
7	0xbe1e76a4	-0.15474945
8	0xbe10f32d	-0.14155264
9	0x3dfdff10	0.12402165
10	0xbda32e2f	-0.07967793
11	0xbdac22fa	-0.08405109
12	0xbdb9644d	-0.09052334
13	0xbdef6892	-0.11689867
14	0xbe58eb52	-0.21183518
15	0xbe393494	-0.18086463

features.7.weight f4 [16, 16, 5, 5]
0	0xbc7d8ebb	-0.015475924
1	0x3ba08f9c	0.004899932
2	0x3d8cbbcc	0.06871757
3	0xbe027706	-0.12740716
4	0xbe427f80	-0.1899395
5	0x3d812371	0.06305588
6	0xbc507d5f	-0.012725203
7	0xbc592f34	-0.013255883
8	0x395905cb	0.0002069689
9	0xbc4b4a6d	-0.012407881
10	0xbc93448e	-0.017977025
11	0xbd4a6ce1	-0.04942024
12	0xbdc77f79	-0.0974111
13	0x3ce79a3b	0.028271785
14	0xbda43890	-0.08018601
15	0x3ccc2f12	0.024924789
16	0xbdeb2143	-0.114809535
17	0xbc4b16e2	-0.012395592
18	0x3c350333	0.011048126
19	0xbd965c21	-0.07341791
20	0xbe19efac	-0.15032834
21	0xbd8e0dca	-0.06936224
22	0x3d00c79b	0.03144036
23	0xbe50056d	-0.2031457
24	0xbdb0f191	-0.08639825
25	0xbca66e96	-0.020316403
26	0xbdc2fcf5	-0.09520904
27	0xbe856ec5	-0.26061073
28	0xbc299903	-0.010351422
29	0x3ce1893d	0.02753126
30	0x3ca9ad3f	0.020712493
31	0xbe2e44f8	-0.17018497
32	0xbe92aa9f	-0.286458
33	0xbcea0d3a	-0.02857076
34	0x3e3b159f	0.18269967
35	0xbb8b9182	-0.0042592892
36	0xbdcedbed	-0.10100541
37	0xbe2612d4	-0.1621812
38	0xbd3dbbcf	-0.046321686
39	0x3e3dea71	0.18546464
40	0xbcead92f	-0.028668014
41	0xbe3285f0	-0.17433906
42	0xbe5ec8b1	-0.21756245
43	0xbde3f827	-0.11131316
44	0x3d5b2686	0.053503536
45	0xbe4303a2	-0.19044355
46	0xbe40c059	-0.18823375
47	0xbe86d7ee	-0.26336616
48	0xbdb30781	-0.08741666
49	0x3e066060	0.13122702
50	0xbf27f1f8	-0.6560359
51	0xbec601dd	-0.38673297
52	0x3bcad79d	0.006190254
53	0xbe3965ba	-0.18105212
54	0xbae6cb73	-0.001760824
55	0xbe661c9a	-0.22471848
56	0xbe94f125	-0.2909023
57	0x3c90d0c9	0.017677682
58	0x3d451d3a	0.048123576
59	0x3e5e5c35	0.21714862
60	0x3d119109	0.035538707
61	0xbc1e04b5	-0.009644677
62	0x3d07b4db	0.03313146
63	0xbd2bd395	-0.041949827
64	0x3e3e75c7	0.18599616
65	0x3e0a7a79	0.13523282
66	0x3d0edda7	0.034879353
67	0x3dfdd401	0.12393952
68	0xbcd1aafa	-0.025594223
69	0x3e344b9c	0.17606968
70	0x3e9dc38e	0.3081326
71	0x3ddd5f2d	0.10809169
72	0xbbc35805	-0.0059614205
73	0xbe54a48c	-0.20765895
74	0xbcc145e3	-0.023592895
75	0x3d5e7def	0.05431932
76	0xbc9f3c2d	-0.019437874
77	0x3d265707	0.04061034
78	0xbd01ee32	-0.0317213
79	0x3dbf4a29	0.09340317
80	0xbda5776d	-0.08079419
81	0xbc8ff480	-0.017572641
82	0x3d3bf59c	0.04588853
83	0x3da6c1df	0.08142447
84	0xbdc9f811	-0.09861768
85	0xbdc4c62d	-0.096081115
86	0xbc84f765	-0.016231248
87	0xbda074a0	-0.078347445
88	0x3c6511ae	0.013981266
89	0x3d0f1271	0.034929696
90	0xbe468df0	-0.19390082
91	0xbde9897f	-0.114031784
92	0xbe2e53f5	-0.17024215
93	0xbd852dcd	-0.065028764
94	0x3ca06d15	0.019583264
95	0x3c458e7c	0.012057897
96	0x3e0ed007	0.13946544
97	0x3dddbeef	0.10827433
98	0x3e4b8f1d	0.19878812
99	0x3dcc3e75	0.0997285
100	0x3e8c9bb8	0.27462554
101	0x3e1e9cf8	0.15489566
102	0x3d831de3	0.06402185
103	0x3d74c7dd	0.059760917
104	0x3c4e5adb	0.012594904
105	0x3da7ee2f	0.08199727
106	0xbe334c7b	-0.17509644
107	0xbe6a3aea	-0.22874036
108	0xbe865012	-0.26232964
109	0xbeb5967d	-0.35466376
110	0xbe86d091	-0.26331
111	0xbe5dc3fd	-0.21656795
112	0xbeab72f4	-0.3348614
113	0xbe21b6a2	-0.15792325
114	0x3e05ee29	0.13079132
115	0x3c5ae85f	0.013361066
116	0xbdbdfa03	-0.092762016
117	0xbdb68532	-0.08912124
118	0xbbec1ebe	-0.007205813
119	0x3e167d76	0.14696297
120	0xbdcef917	-0.10106104
121	0xbe3f4ccd	-0.18681641
122	0xbd852eaf	-0.06503045
123	0x3e17198f	0.14755844
124	0x3ea6e748	0.3259833
125	0xbbb9e481	-0.0056729917
126	0xbb84fbbf	-0.004058331
127	0xbd95a632	-0.0730709
128	0x3c838824	0.016056128
129	0xbe33d393	-0.17561178
130	0x3d57ced6	0.05268749
131	0x3d1462d1	0.03622705
132	0x3c78b8d5	0.015180786
133	0xbcb4991c	-0.022045664
134	0xbdefd5ec	-0.11710724
135	0x3dacfa77	0.0844621
136	0xbada400a	-0.0016651165
137	0xbbe25992	-0.0069076503
138	0xbddadef5	-0.10687057
139	0x3d411787	0.047141578
140	0xbd4a8e8a	-0.049452342
141	0x3d3b30f2	0.045700975
142	0x3d2a2a59	0.041544292
143	0xbb3a5502	-0.0028432016
144	0x3d24d76f	0.040244516
145	0x3c8160f3	0.0157933
146	0x3cac9639	0.021067725
147	0xbdac8bc6	-0.08425097
148	0xbe178b52	-0.1479924
149	0x3e17aa37	0.14811026
150	0xbd6b74bb	-0.05748437
151	0xbde4dcf6	-0.111749575
152	0xbe8c344d	-0.27383652
153	0xbeb575db	-0.3544148
154	0x3cd3f807	0.025875105
155	0xbc7c3de7	-0.015395618
156	0xbdb56175	-0.08856479
157	0xbedd029c	-0.43166053
158	0xbeb763d0	-0.35818338
159	0x3dbf0288	0.09326655
160	0x3d1ac228	0.037782818
161	0x3d2c6067	0.042084124
162	0xbe850d94	-0.25986922
163	0xbed6f1d4	-0.41981375
164	0x3dc80079	0.09765715
165	0x3e80cefe	0.25157923
166	0x3e7e06eb	0.24807326
167	0xbd1ffdf2	-0.03906054
168	0xbedd97ad	-0.43279782
169	0x3cab79bd	0.020932073
170	0x3e554d37	0.20830236
171	0x3e8f1907	0.27948782
172	0xbd19dfcf	-0.037566956
173	0xbedace24	-0.42735398
174	0xbd07be96	-0.03314074
175	0xbdb33835	-0.08750955
176	0xbdc568c4	-0.09639123
177	0x3d56ef11	0.052474085
178	0x3e1605c0	0.14650631
179	0x3c2f8891	0.010713712
180	0x3d79b4c3	0.060963403
181	0x3d705587	0.058675315
182	0xbd447c4d	-0.047970105
183	0x3e2eb985	0.17062958
184	0x3ce936d3	0.028468525
185	0x3baef197	0.0053388583
186	0xbdc6268a	-0.096753195
187	0xbca68f81	-0.0203321
188	0xbb8b5087	-0.004251543
189	0x3d4cd5e2	0.050008662
190	0x3e058ee1	0.13042785
191	0x3cd87ca4	0.02642662
192	0x3d6ce2f0	0.057833612
193	0x3e31fa88	0.17380726
194	0x3e1abc2b	0.15110843
195	0x3de0659a	0.10956879
196	0x3d4a8be8	0.04944983
197	0x3db5a3b2	0.08869113
198	0x3e0eeb67	0.13956986
199	0x3d64ba07	0.055841472
200	0xbcb2435a	-0.021760631
201	0xbd28df53	-0.041228604
202	0x3deccbb7	0.11562293
203	0x3c803666	0.01565094
204	0xbcde4b5a	-0.02713554
205	0xbddc4d8a	-0.10756977
206	0xbda4e0ff	-0.08050727
207	0x3e0c147a	0.13679686
208	0x3dab148f	0.083535306
209	0xbd19643f	-0.037449118
210	0xbdc16b58	-0.09444302
211	0xbd1a5aa4	-0.037684098
212	0x3d70063b	0.05859969
213	0x3e25dced	0.16197558
214	0xbe28d4a1	-0.16487361
215	0x3c85a523	0.016314095
216	0x3b4abfbe	0.003093704
217	0x3d8d6470	0.069039226
218	0x3c52b66f	0.012860878
219	0x3c42f82d	0.01189999
220	0xbe0d0d81	-0.13774683
221	0x3dc37b01	0.095449455
222	0x3c0bc251	0.008530215
223	0x3b8d7a62	0.0043175677
224	0x3d51239f	0.05105936
225	0x3e6d1c31	0.23155285
226	0x3da1a08a	0.078919485
227	0x3e8a2558	0.26981616
228	0xbd54c788	-0.0519481
229	0xbea708c1	-0.32623866
230	0x3e3283e4	0.17433125
231	0xbc1b4a06	-0.009478098
232	0x3c27fb4d	0.010252786
233	0xbe575348	-0.21027863
234	0xbeea5e54	-0.45775092
235	0x3d0e59d4	0.034753636
236	0xbed92e77	-0.42418262
237	0xbe8b7ab4	-0.27242053
238	0xbe6c2b5b	-0.23063414
239	0xbebcddda	-0.3688801
240	0x3dec62e3	0.11542299
241	0xbe7944c9	-0.24342646
242	0xbeae5f43	-0.34057054
243	0xbe560dcd	-0.20903702
244	0xbeb23832	-0.348085
245	0x3df1d7e7	0.11808758
246	0xbc0aa525	-0.008462225
247	0xbe0e5d61	-0.13902809
248	0xbe19a358	-0.15003717
249	0xbea487af	-0.32134768
250	0x3d561b1c	0.052271947
251	0xbe0cefd0	-0.13763356
252	0xbba8ac90	-0.005147524
253	0x3d517b89	0.051143203
254	0xbdd1025f	-0.102055304
255	0xbd044e4f	-0.032301243

features.7.bias f4 [16]
0	0xbcf4881c	-0.029850058
1	0x3d80c6d9	0.06287927
2	0xbac7290e	-0.001519473
3	0x3cffeb5a	0.031240154
4	0xbd3ac3f5	-0.045597035
5	0xbdbf98f8	-0.09355348
6	0xbe8eaa41	-0.27864268
7	0xbdce66fc	-0.100782365
8	0xbd93a3d0	-0.07208979
9	0xbd49e78d	-0.04929309
10	0xbe119cd0	-0.14219975
11	0xbe9d4243	-0.30714616
12	0xbd56e123	-0.0524608
13	0xbe8eae7b	-0.27867493
14	0xbda25258	-0.07925862
15	0xbd356c2b	-0.04429261

features.10.weight f4 [32, 16, 5, 5]
0	0xbbaf09ec	-0.005341759
1	0x3c89938f	0.016793994
2	0xbdda3cc1	-0.10656119
3	0x3e50e4f0	0.20399833
4	0x3e1b2bdc	0.1515345
5	0x3d898218	0.067142665
6	0x3d47f2b4	0.048815444
7	0x3ce4010c	0.02783253
8	0x3e33e121	0.17566349
9	0x3e8b2bb9	0.27181795
10	0x3e11813c	0.14209455
11	0x3df282ca	0.11841352
12	0x3d15bdd6	0.036557995
13	0x3bcf3663	0.006323622
14	0xbd36bab5	-0.04461165
15	0x3d0664e5	0.032811064
16	0xbd8bd012	-0.06826796
17	0xbdd0bb55	-0.10191981
18	0xbe15e0f9	-0.14636602
19	0xbe002e82	-0.12517741
20	0xbd767702	-0.06017209
21	0xbc674388	-0.014115222
22	0xbc0e02e3	-0.00866768
23	0x3dfe33b0	0.12412202
24	0x3e4f4a95	0.20243295
25	0x3e9a4a7f	0.3013496
26	0x3e8ea062	0.27856737
27	0x3e223ade	0.15842769
28	0xbd4ab3bf	-0.049487825
29	0xbe29d56b	-0.16585319
30	0x3e9716ad	0.29509488
31	0x3e9ffa84	0.31245816
32	0x3e638b10	0.22221017
33	0x3b9ec849	0.004845653
34	0xbe3cc5dd	-0.18434854
35	0x3d8c9fd9	0.06866426
36	0x3da8181f	0.08207726
37	0x3d84ce2c	0.06484637
38	0x3e08ca74	0.1335848
39	0xbd88711f	-0.06662201
40	0xbd5ea0d8	-0.05435261
41	0xbd45905c	-0.048233375
42	0xbdb79008	-0.08963019
43	0xbdc44e71	-0.09585274
44	0xbd8ea7f7	-0.069656305
45	0xbeb2eba7	-0.34945413
46	0xbec8a4d7	-0.39188263
47	0xbec9cbb6	-0.39413232
48	0xbefd5d20	-0.4948511
49	0xbefc3d0a	-0.4926532
50	0x3e02ed74	0.12785894
51	0x3e2f63c8	0.17127907
52	0x3e85d28b	0.26137194
53	0x3e5b72dc	0.21430534
54	0x3ec72895	0.3889815
55	0x3c967320	0.018365443
56	0x3e48791f	0.19577454
57	0x3e5453c1	0.20735075
58	0x3e64afe3	0.2233272
59	0x3ca53950	0.02016893
60	0x3da3e0d1	0.08001865
61	0x3d89ff36	0.06738131
62	0x3e2c405e	0.16821429
63	0x3dc1463d	0.09437225
64	0xbe093827	-0.13400327
65	0x3e36bc5e	0.17845294
66	0x3e37f8d0	0.17966008
67	0x3e69f07f	0.22845648
68	0x3e215623	0.15755515
69	0xbe90eae0	-0.28304195
70	0x3e417695	0.18892892
71	0x3ec6439a	0.3872345
72	0x3eb0a015	0.34497133
73	0x3db68191	0.089114316
74	0xbe0703c4	-0.1318503
75	0x3e0c9e49	0.13732256
76	0x3e845d59	0.2585247
77	0x3dd5891a	0.10426541
78	0x3dc91b28	0.09819633
79	0xbe1ea34c	-0.1549198
80	0x3e8aea8a	0.27132064
81	0x3d7d9e7e	0.061918728
82	0xbde7f4b6	-0.11325972
83	0xbd679fae	-0.056548767
84	0xbf09cb61	-0.53825957
85	0xbce390de	-0.027779039
86	0xbdca0cde	-0.098657355
87	0xbeaa3485	-0.33243194
88	0xbe309925	-0.1724592
89	0xbebe0016	-0.3710944
90	0xbe8ecd50	-0.27891016
91	0xbed3a100	-0.4133377
92	0xbf348403	-0.70513934
93	0xbdd2f9ac	-0.103015274
94	0xbe677d6b	-0.22606437
95	0xbef60ef0	-0.4805827
96	0xbf1f5da2	-0.6225225
97	0xbf025bfb	-0.509216
98	0xbd9ca323	-0.07648303
99	0xbf1fcc4f	-0.62421125
100	0xbed64c32	-0.41855007
101	0xbe9b23eb	-0.3030084
102	0xbeae8c7f	-0.34091565
103	0xbe9bec44	-0.30453694
104	0xbe26e707	-0.16299067
105	0xbeaddded	-0.33958378
106	0xbe9357cc	-0.2877792
107	0xbe6030af	-0.21893571
108	0xbebacca1	-0.36484244
109	0xbe9fb2ab	-0.31191
110	0xbd712c96	-0.05888041
111	0xbd07e612	-0.033178397
112	0xbe3db26e	-0.18525097
113	0xbe423efd	-0.1896934
114	0xbeab85df	-0.33500573
115	0xbdf0696a	-0.11738856
116	0x3d71f2c3	0.059069406
117	0xbdc2c278	-0.09509748
118	0xbd2c3052	-0.04203827
119	0xbe821941	-0.25409892
120	0x3dbc8b08	0.092062056
121	0x3db6c8ca	0.08925016
122	0xbd956ccf	-0.07296144
123	0xbcd44e6e	-0.025916304
124	0xbddb03e5	-0.10694102
125	0xbf004c71	-0.5011664
126	0xbeb1883c	-0.3467425
127	0xbe51b605	-0.20479591
128	0xbd7d7b1b	-0.06188498
129	0xbe36ba4e	-0.17844507
130	0xbe63a72e	-0.22231743
131	0xbea85ce1	-0.3288336
132	0xbcf159b7	-0.029461725
133	0x3d64cdcf	0.055860337
134	0xbd849a7a	-0.064747766
135	0x3e2b25c5	0.16713627
136	0x3e3637b1	0.17794682
137	0xbdc663a4	-0.09686974
138	0x3dd101c0	0.10205412
139	0xbdc887d2	-0.09791531
140	0x3dd5c66a	0.10438235
141	0x3e9a342e	0.30117935
142	0x3d953c05	0.072868384
143	0x3e1fc364	0.1560188
144	0xbe1c7eda	-0.15282765
145	0xbc597be1	-0.013274164
146	0xbed68e54	-0.41905463
147	0xbeb1e7a2	-0.34747034
148	0x3e70ddc9	0.23522104
149	0x3d2cbfe4	0.04217519
150	0x3c9468a5	0.018116305
151	0xb9ac6e5b	-0.00032888618
152	0xbe8994a9	-0.2687123
153	0xbc8606b3	-0.016360616
154	0xbe5a8583	-0.21339993
155	0xbd6a9067	-0.05726662
156	0xbe2097f8	-0.15682971
157	0xbeace77a	-0.33770353
158	0xbe064b33	-0.13114624
159	0xbea8b0f8	-0.32947516
160	0x3d10de05	0.035367984
161	0xbdfa1c0c	-0.12212381
162	0xbe91c07f	-0.28467175
163	0xbe9456e7	-0.2897255
164	0xbe9fdf7c	-0.31225193
165	0xbd725c5f	-0.059170123
166	0xbe497807	-0.19674693
167	0xbe4c96e0	-0.19979429
168	0xbe926ea5	-0.2860004
169	0xbec2e303	-0.3806382
170	0x3dc5657e	0.09638499
171	0xbd7bd426	-0.061481617
172	0xbd11cc78	-0.035595387
173	0xbba6d6a4	-0.005091505
174	0x3d974c8d	0.07387648
175	0xbeb09073	-0.34485206
176	0xbe821379	-0.2540548
177	0xbe2a8fd0	-0.16656423
178	0xbee3fb8f	-0.4452786
179	0xbeb00463	-0.34378347
180	0x3dc79c9c	0.09746668
181	0xbdef0347	-0.11670547
182	0xbd96353d	-0.07334373
183	0xbe131bec	-0.1436612
184	0xbd3da295	-0.04629763
185	0x3eb594c5	0.35465065
186	0xbd8311f3	-0.06399908
187	0xbe26375a	-0.16232052
188	0xbe021576	-0.12703499
189	0xbebb8fe6	-0.36633223
190	0x3eb636a2	0.35588557
191	0x3e8beffc	0.2733153
192	0x3e5417c5	0.20712192
193	0xbcd9851b	-0.026552727
194	0xbe7e745a	-0.24849072
195	0x3c99acaa	0.01875909
196	0x3d66f2f8	0.056384057
197	0xbbbdf6cb	-0.0057972423
198	0xbcda0e15	-0.026618043
199	0x3d08be25	0.03338446
200	0x3e22df05	0.15905388
201	0x3de2c9be	0.110736355
202	0xbcfbab98	-0.03072147
203	0xbc7c1707	-0.0153863495
204	0x3d056a33	0.032571983
205	0xbd823755	-0.0635821
206	0xba373953	-0.0006989438
207	0x3d4e65c9	0.05039004
208	0xbded9c79	-0.116021104
209	0x3c0ca739	0.008584791
210	0xbd163c58	-0.036678642
211	0xbe33bb3f	-0.17551897
212	0xbe80942a	-0.2511304
213	0xbdc9a93c	-0.09846732
214	0xbd31580c	-0.04329686
215	0xbc284d49	-0.0102723325
216	0x3e4294bf	0.19002055
217	0xbe849640	-0.25895882
218	0x3e3e0954	0.18558246
219	0x3e2e8b18	0.17045248
220	0x3dc88f34	0.09792939
221	0x3e444319	0.1916622
222	0x3cb1b022	0.021690432
223	0x3e8ce162	0.27515703
224	0x3e7b3b92	0.24534443
225	0xbec3cc66	-0.3824188
226	0xbe304bd5	-0.17216428
227	0xbe7c7c3b	-0.24656765
228	0xbeb11a5c	-0.34590423
229	0xbf48068a	-0.7813498
230	0xbec573f0	-0.38565016
231	0xbd5edfae	-0.054412536
232	0xbe1f0a51	-0.15531279
233	0xbe845e32	-0.25853115
234	0xbf135645	-0.5755351
235	0x3d69c767	0.05707493
236	0x3eae3731	0.34026483
237	0x3e008804	0.12551886
238	0xbddc6cb5	-0.10762922
239	0x3e166e5b	0.14690535
240	0x3df3c9da	0.119037345
241	0x3e427a96	0.18992075
242	0x3eaa1712	0.33220726
243	0x3d33a180	0.04385519
244	0x3e30378a	0.17208686
245	0x3e2f0afd	0.17094035
246	0x3e4a2048	0.19738877
247	0x3d2f6fc2	0.04283119
248	0x3e5ec657	0.21755348
249	0x3eab321b	0.33436665
250	0xbe18ef41	-0.14935018
251	0x3c63e7d5	0.0139102535
252	0x3d41a4de	0.04727637
253	0x3d777b40	0.060420275
254	0x3d949f44	0.0725694
255	0xbeb0ab79	-0.34505823

features.10.bias f4 [32]
0	0x3983f0d9	0.00025165713
1	0x3c024188	0.007950194
2	0xbec01294	-0.37514174
3	0xbb97309e	-0.00461395
4	0xbb4c27a4	-0.0031151557
5	0xbe850bcd	-0.25985566
6	0x3d8f18a4	0.06987122
7	0xbd5665b6	-0.052343093
8	0xbdf65778	-0.12028402
9	0xbdf9441d	-0.12171195
10	0xbda25e6b	-0.07928165
11	0xbea6482f	-0.32476947
12	0xbe1c289c	-0.15249866
13	0xbd1948d8	-0.037422985
14	0xbe536f7f	-0.20648001
15	0x3d9ef078	0.077607095
16	0x3c026aa4	0.007959995
17	0x3da1cfbb	0.079009496
18	0xbc9cb5a4	-0.019129582
19	0xbc85c367	-0.016328527
20	0x3e283a55	0.16428502
21	0xbd689ba2	-0.056789048
22	0x3d8b3e3f	0.06798982
23	0x3d6930b0	0.056931198
24	0xbd26f09a	-0.0407568
25	0xbd9b4539	-0.075815625
26	0xbedab70c	-0.4271778
27	0xbdeeeddc	-0.11666462
28	0x3d8a0326	0.06738882
29	0xbe30b138	-0.17255104
30	0x3cc30a04	0.023808487
31	0xbdccd8d3	-0.100022934

features.12.weight f4 [32, 32, 5, 5]
0	0xbee04679	-0.43803766
1	0xbee26589	-0.4421809
2	0x3c605c86	0.013693934
3	0x3e32df37	0.17467962
4	0xbe101c35	-0.1407326
5	0x3d98ba95	0.07457463
6	0x3de98c81	0.11403752
7	0x3dc3f1ff	0.095676415
8	0xbe0e1808	-0.13876355
9	0xbde4871a	-0.11158581
10	0x3e6f606a	0.23376623
11	0xbe70f4bf	-0.23530863
12	0xbf0ce781	-0.55040747
13	0xbee62f99	-0.4495819
14	0xbdd6c5b3	-0.10486927
15	0xbf181d6a	-0.5941988
16	0xbe02eeca	-0.12786403
17	0x3e17bb58	0.1481756
18	0x3dbbb460	0.09165263
19	0x3e936f14	0.28795683
20	0xbe974d96	-0.2955138
21	0x3e4d8fe7	0.20074426
22	0x3d36e30b	0.04465012
23	0x3da43c2f	0.080192916
24	0xbe5ba47c	-0.21449465
25	0xbd853729	-0.065046616
26	0x3cc6c126	0.024262022
27	0x3dcbe2a9	0.09955341
28	0x3de93ded	0.113887645
29	0x3e45c0bf	0.19311808
30	0x3e577acf	0.21042942
31	0x3dfa97ee	0.122360095
32	0x3e59ba40	0.21262455
33	0x3ea79201	0.3272858
34	0x3d70bf94	0.058776453
35	0x3e6d74ba	0.23189059
36	0x3dd51e8f	0.10406219
37	0xbd9f32c1	-0.077733524
38	0xbe2daabd	-0.16959663
39	0xbdea2b00	-0.11433983
40	0x3d0396ba	0.032126166
41	0xbd5a4e39	-0.053297255
42	0xbdf442b7	-0.11926787
43	0xbe2df19f	-0.16986702
44	0xbe2cf794	-0.16891319
45	0xbe0782d9	-0.13233508
46	0xbdff808f	-0.124756925
47	0x3cdad30d	0.026711965
48	0x3d155082	0.03645373
49	0x3d67ae06	0.056562446
50	0xbf4424b2	-0.7661849
51	0xbee75672	-0.4518314
52	0xbd3f5529	-0.046712074
53	0x3dd226a4	0.10261276
54	0xbe3aa1ef	-0.18225835
55	0xbe42ba5d	-0.19016404
56	0xbe00def5	-0.12585051
57	0xbe9f60db	-0.31128582
58	0xbd922f95	-0.07137982
59	0x3da17f41	0.078856
60	0x3f22bfe1	0.63574034
61	0xbe9e2aa4	-0.30891907
62	0xbf0a325b	-0.53983086
63	0x3ef0cc96	0.47031087
64	0xbde85d7c	-0.11345956
65	0xbefd2df2	-0.49449116
66	0x3e45309e	0.19256827
67	0x3e6c7bcf	0.23094104
68	0x3ea41064	0.32043755
69	0x3dfe2de0	0.12411094
70	0x3e899e0b	0.2687839
71	0x3ebc4fea	0.3677972
72	0xbe1e680c	-0.15469378
73	0x3ea75ab6	0.32686394
74	0x3bb53832	0.0055303806
75	0xbe72741e	-0.23677108
76	0xbe6f44aa	-0.23366037
77	0x3eb94258	0.3618343
78	0x3ee60e2c	0.44932687
79	0x3e7f3cd3	0.24925546
80	0xbe9efc6a	-0.31051952
81	0xbd8a521f	-0.067539446
82	0x3ee7dbd6	0.4528491
83	0x3e8f1e61	0.27952865
84	0x3d1a2fb6	0.037643157
85	0xbdcab2f0	-0.09897411
86	0x3c3433c2	0.010998668
87	0x3eb5a34a	0.35476142
88	0xbc2d1418	-0.010563873
89	0xbe7df240	-0.24799442
90	0xbe438f31	-0.19097592
91	0xbcfdb979	-0.03097223
92	0x3d5d72bf	0.05406451
93	0xbe9c8e53	-0.30577335
94	0xbeb0f64d	-0.34562913
95	0xbe6261f8	-0.22107685
96	0x3db1d961	0.0868404
97	0x3e8f72e4	0.28017342
98	0x3d82645d	0.06366799
99	0xbe4a809f	-0.19775628
100	0x3b964644	0.004586013
101	0xbdf92cd7	-0.12166756
102	0xbe1f2b30	-0.15543818
103	0xbcc7adfc	-0.024374954
104	0x3ce1e3e2	0.027574483
105	0x3bc08b7b	0.0058760024
106	0xbe4b51ca	-0.19855419
107	0xbe0a5b92	-0.13511494
108	0xbdabb94e	-0.083849534
109	0x3e149211	0.14508845
110	0xbc774358	-0.01509174
111	0xbda6b18c	-0.08139333
112	0xbd45ea4d	-0.04831915
113	0x3a2a3008	0.00064921426
114	0x3e5be229	0.21472992
115	0xbdaec9e5	-0.08534602
116	0xbd9b0726	-0.07569723
117	0x3dc448e4	0.09584215
118	0x3c11b41e	0.008893041
119	0xbc1de895	-0.009637971
120	0x3e543bb4	0.207259
121	0x3e4acb24	0.19804054
122	0x3df34d77	0.118800096
123	0x3d1201e9	0.035646353
124	0xbd3ff523	-0.04686464
125	0x3cad4eab	0.021155676
126	0x3d80ee21	0.062954195
127	0x3e8aaa40	0.27083015
128	0x3e201be0	0.15635633
129	0x3e3b6290	0.18299317
130	0x3e3713bd	0.17878623
131	0x3deedc72	0.1166314
132	0xbd82bee3	-0.06384065
133	0x3ca8807b	0.020569077
134	0x3d57aeb4	0.052656844
135	0xbe36580d	-0.17807026
136	0xbe68a4a4	-0.22719055
137	0xbdb20c72	-0.0869378
138	0x3db52027	0.08844023
139	0xbdbc36a4	-0.09190109
140	0x3dbaecca	0.09127195
141	0xbdbca8fc	-0.09211919
142	0xbe3a3481	-0.18184091
143	0x3d20a869	0.03922311
144	0x3d99176f	0.07475173
145	0xbdce6a1c	-0.100788325
146	0xbcf3e4fd	-0.029772276
147	0xbe768857	-0.24075447
148	0x3c4e1d23	0.012580189
149	0x3e476c67	0.19474946
150	0xbe947b02	-0.29000098
151	0xbe360067	-0.17773591
152	0x3ea6658c	0.3249935
153	0x3ed1487b	0.4087561
154	0x3d712b28	0.058879048
155	0xbec3f2e4	-0.38271248
156	0xbe0cd854	-0.13754398
157	0x3e69d097	0.22833477
158	0x3d93351c	0.07187864
159	0xbe2bc1c0	-0.16773129
160	0xbe8685f7	-0.26274082
161	0x3e334388	0.1750623
162	0x3e5a9e2c	0.213494
163	0xbd9e82fd	-0.07739828
164	0xbeb06b1f	-0.34456727
165	0xbd6948f6	-0.056954347
166	0x3e4a9eee	0.1978719
167	0x3d240d04	0.040051475
168	0xbeb4eed8	-0.35338473
169	0xbeb4ab0a	-0.35286742
170	0xbdf5b136	-0.11996691
171	0x3eba9dff	0.36448666
172	0x3e8d7b64	0.27633202
173	0x3caf1121	0.021370472
174	0xbe2a57cc	-0.16635054
175	0x3e2aa4cf	0.16664432
176	0xbdb03f69	-0.086058445
177	0xbd16681e	-0.036720388
178	0x3e945378	0.28969932
179	0xbdeace28	-0.114651024
180	0xbe111b30	-0.14170527
181	0x3ea51163	0.32239828
182	0xbccb7c42	-0.024839524
183	0xbe1c62f1	-0.15272118
184	0x3db0b0c1	0.08627463
185	0xbd9ea501	-0.07746316
186	0x3e6a6a80	0.22892189
187	0x3d3225cd	0.04349308
188	0xbf1f9c7b	-0.62348145
189	0xbe8a09ea	-0.2696069
190	0x3c5da409	0.013527879
191	0xbe879740	-0.26482582
192	0xbea069a9	-0.31330612
193	0xbee37aea	-0.44429713
194	0x3c142097	0.009040973
195	0xbec562e6	-0.38552016
196	0xbefc1ef7	-0.49242374
197	0xbe666c6d	-0.22502299
198	0xbeac9a15	-0.33711305
199	0xbf085b48	-0.53264284
200	0x3f2abcb8	0.6669421
201	0x3e9f3ce9	0.31101158
202	0x3eb40253	0.35158023
203	0x3f130450	0.57428455
204	0x3d90bad3	0.07066884
205	0xbe3f3f82	-0.1867657
206	0x3ea19ee9	0.3156655
207	0xbd110372	-0.035403676
208	0x3f2adcbb	0.6674306
209	0xbdc0e9d0	-0.09419596
210	0xbea9da03	-0.33174142
211	0x3ded95aa	0.11600812
212	0x3f054f1c	0.52073836
213	0x3ee166d6	0.4402377
214	0xbe7be574	-0.24599248
215	0xbe770354	-0.24122363
216	0xbd36400e	-0.04449468
217	0xbcf15477	-0.029459221
218	0xbedd59df	-0.4323263
219	0xbd28a430	-0.041172206
220	0xbf41beab	-0.7568156
221	0xbee4a844	-0.44659626
222	0xbec71104	-0.3888017
223	0xbf0e81d0	-0.5566683
224	0xbf18cbcf	-0.5968599
225	0xbe26ad9e	-0.16277167
226	0xbf026f22	-0.50950825
227	0xbcde558f	-0.027140407
228	0x3eb453ce	0.35220188
229	0xbed6bbd3	-0.41940174
230	0xbd9cf11b	-0.07663175
231	0xbf5240cd	-0.8213013
232	0xbf0a7b16	-0.54094064
233	0x3d8563e0	0.0651319
234	0xbea357da	-0.31902963
235	0xbd3c1e4b	-0.045927327
236	0xbf4a9a1c	-0.791414
237	0xbe002085	-0.12512405
238	0x3df28c97	0.11843222
239	0xbf2a6939	-0.6656681
240	0x3dc9d81a	0.09855671
241	0x3d26a3e5	0.040683646
242	0x3e0bef7c	0.13665575
243	0xbe78a7f8	-0.24282825
244	0xbf56c812	-0.83899033
245	0x3e222982	0.15836146
246	0x3d7cff8c	0.061767146
247	0xbcf8eeb2	-0.030387256
248	0xbe5d09ab	-0.2158572
249	0xbe828f1c	-0.2549981
250	0x3dbb893d	0.091570355
251	0x3e2e1736	0.17001042
252	0x3e683479	0.22676267
253	0xbe2b0a00	-0.16703033
254	0xbe3c25ac	-0.18373746
255	0xbbb87605	-0.0056293034

features.12.bias f4 [32]
0	0xbdb4e7b8	-0.08833259
1	0x3dc9108b	0.098176084
2	0xbe2b8e23	-0.1675344
3	0xbd9a1e1a	-0.07525273
4	0xbe1cfc13	-0.15330534
5	0xbe2398fd	-0.15976329
6	0xbd4ef175	-0.05052324
7	0xbd9d0205	-0.07666401
8	0x3d5e9fcf	0.054351624
9	0xbd794e43	-0.06086565
10	0xbd046223	-0.032320153
11	0xbe7012c8	-0.23444664
12	0x3dc3ea5a	0.095661834
13	0x3e354980	0.1770382
14	0x3da915d4	0.082561165
15	0xbdf38823	-0.118912004
16	0x3dbe24d4	0.09284368
17	0x3d30ca98	0.04316196
18	0x3d491ec0	0.04910159
19	0x3dffb850	0.12486327
20	0x3d643ce2	0.055722125
21	0x3b9b7d06	0.0047451286
22	0x3e14329c	0.14472431
23	0xbd10b5da	-0.035329677
24	0x3dbdb12e	0.0926231
25	0x3cdf8017	0.027282758
26	0xbd8bb62e	-0.068218574
27	0xbcaecbc9	-0.021337407
28	0xbe006f97	-0.12542568
29	0xbda8abc2	-0.08235885
30	0xbd920e7c	-0.07131669
31	0x3e082832	0.13296583
