planr_grasp_ggcnn/ggcnn_weights_cornell/ggcnn_epoch_23_cornell_statedict.pt (torch_old, 252826 bytes, 16 tensors)

conv1.weight f4 [32, 1, 9, 9]
0	0xbdedbead	-0.11608634
1	0xbe51aa87	-0.20475207
2	0xbe3c4f90	-0.18389726
3	0xbe3fa982	-0.18717006
4	0xbe4b2c3a	-0.1984109
5	0xbe543eac	-0.20727032
6	0xbe40f853	-0.18844728
7	0xbe55fee2	-0.20898011
8	0xbe1f5664	-0.15560299
9	0xbd5fe34f	-0.054660138
10	0xbd80d9e3	-0.062915586
11	0xbe09b136	-0.13446507
12	0xbe03ff39	-0.12890328
13	0xbe141ba5	-0.1446367
14	0xbdeb1cf9	-0.114801355
15	0xbdc8ab6e	-0.097983226
16	0xbdf94099	-0.12170524
17	0xbdf136d4	-0.11778036
18	0xbd3421c4	-0.043977514
19	0xbd7a257b	-0.0610709
20	0xbd7d22d8	-0.061800808
21	0xbd5b201c	-0.05349742
22	0xbdbf15bc	-0.093303174
23	0xbdaf2458	-0.08551854
24	0xbd1a0b5b	-0.037608486
25	0xbd38c8a6	-0.04511323
26	0xbdac9c69	-0.0842827
27	0x3d1150bd	0.03547739
28	0xbd61f2f0	-0.055163324
29	0xbd8d493c	-0.06898734
30	0xbd88fa6e	-0.06688391
31	0xbd71592b	-0.058922928
32	0xbcf824a7	-0.030290915
33	0xbd86c56e	-0.065806255
34	0xbd42477b	-0.04743145
35	0xbd961948	-0.07329041
36	0x3b0eb998	0.0021778103
37	0x3cc3dff5	0.023910502
38	0xbc642b04	-0.013926271
39	0xbd3a2694	-0.045446947
40	0xbdedcc22	-0.11611201
41	0xbe11d360	-0.1424079
42	0xbd618b9c	-0.055064783
43	0xbd5a3df8	-0.053281754
44	0xbd6ef7a7	-0.05834165
45	0x3cf4044f	0.02978721
46	0x3cbbb781	0.02291465
47	0xbd122c68	-0.03568688
48	0xbd4ae8a3	-0.049538266
49	0xbc861aba	-0.016370166
50	0xbcee4ec1	-0.029090287
51	0xbd7ddfa7	-0.06198087
52	0xbcf5de93	-0.030013358
53	0xbda1bea4	-0.0789769
54	0x3e3bb1e8	0.18329585
55	0x3e172f96	0.14764246
56	0x3e04114a	0.1289722
57	0x3de6aca8	0.112634
58	0x3dba81ba	0.09106775
59	0x3dc11bc5	0.09429125
60	0x3dc4c2d5	0.09607474
61	0x3da6131d	0.08109114
62	0x3d67a009	0.056549106
63	0x3e851409	0.25991848
64	0x3e78b315	0.24287064
65	0x3e2886ed	0.1645772
66	0x3e171c9b	0.14757006
67	0x3de273a7	0.11057215
68	0x3e1fb8e3	0.15597872
69	0x3daf8d18	0.08571833
70	0x3e125930	0.14291835
71	0x3e2701e1	0.1630931
72	0x3ebd7c6b	0.37008986
73	0x3ea9280a	0.3303836
74	0x3ec5982f	0.3859267
75	0x3eadfb30	0.33980703
76	0x3eb885fb	0.3603972
77	0x3eaaef69	0.3338578
78	0x3e9d7fc1	0.3076153
79	0x3e9732e7	0.29531023
80	0x3e863427	0.26211664
81	0x3c8b4b67	0.017003728
82	0x3d17c25b	0.037050586
83	0x3d6fec0a	0.058574714
84	0x3d97952e	0.07401501
85	0x3d8417d2	0.06449856
86	0x3d4b2ca8	0.049603134
87	0x3d618825	0.05506148
88	0x3e04c6a9	0.12966408
89	0x3e5536ab	0.20821635
90	0xbc2cef97	-0.01055517
91	0xbb2ec652	-0.00266685
92	0xbd929365	-0.071570195
93	0x3d4fdd09	0.050747905
94	0x3d20135f	0.039080974
95	0x3b40b4d6	0.0029404662
96	0xbcfbfe5f	-0.030760942
97	0xbc0b5a61	-0.008505435
98	0x3d731190	0.05934292
99	0xbddd2ecc	-0.107999414
100	0xbd55f8c4	-0.052239195
101	0xbdd428dc	-0.10359356
102	0xbc9b56c0	-0.018962264
103	0xbd9de79f	-0.07710194
104	0xbdd5ff11	-0.10449041
105	0xbd830927	-0.0639823
106	0xbc86d1ae	-0.016457405
107	0xbcd17faa	-0.02557357
108	0x3d0d853f	0.0345509
109	0x3bce3a25	0.0062935525
110	0xbd2ed6d4	-0.042685345
111	0x3d9779c0	0.07396269
112	0x3b4d633d	0.0031339668
113	0x3cc11ff5	0.023574809
114	0x3d87fdc7	0.06640201
115	0x3d714a29	0.058908615
116	0x3e257a4a	0.16159931
117	0xbdbb4fe7	-0.091460995
118	0xbd3c9253	-0.046037983
119	0xbdd72a75	-0.10506145
120	0x3cbb435c	0.022859268
121	0x3c2ea2d9	0.010658943
122	0x3c8ed9c6	0.017437827
123	0x3c5ae237	0.013359598
124	0x3d2ca26b	0.04214708
125	0x3d2ed74f	0.042685803
126	0xbd59553c	-0.0530598
127	0xbd2f3d40	-0.042783022
128	0xbdffc90a	-0.12489517
129	0xbb87e010	-0.0041465834
130	0xbcb8baa4	-0.022549935
131	0xbca094ad	-0.019602144
132	0xbccd8fcb	-0.02509298
133	0x3d3da369	0.04629842
134	0x3d81dbee	0.063407764
135	0xbe0136df	-0.12618588
136	0xbda285c6	-0.079356715
137	0xbd791287	-0.060808685
138	0xbcd2a838	-0.025714979
139	0xbc871102	-0.016487602
140	0xbd8c82ba	-0.068608716
141	0xbd11ec39	-0.03562567
142	0x3d10628e	0.03525024
143	0x3dc2b182	0.09506513
144	0xbdcafda7	-0.099116616
145	0xbd36da77	-0.044641938
146	0xbd8346d9	-0.064099975
147	0xbd5d7a13	-0.054071497
148	0xbcefec7f	-0.029287575
149	0xbd5af108	-0.05345252
150	0xbd1d2f7c	-0.038375363
151	0x3c411ebc	0.011787113
152	0x3d59ed2a	0.053204693
153	0xbdac5686	-0.084149405
154	0xbad8b765	-0.0016534148
155	0xbcb03355	-0.021508852
156	0x3c279d42	0.010230364
157	0x3d76f91b	0.06029616
158	0x3d7b77fa	0.061393715
159	0x3d9fe882	0.07808019
160	0x3d3ca0d3	0.04605181
161	0x3e1a4792	0.15066364
162	0xbdef310a	-0.11679275
163	0xbd8df205	-0.06930927
164	0xbdd98980	-0.10621929
165	0xbe36cd79	-0.17851819
166	0xbe0ccdaf	-0.13750337
167	0xbe3e24b3	-0.18568687
168	0xbe60e713	-0.21963148
169	0xbe652c8d	-0.22380276
170	0xbe6682e0	-0.22510862
171	0x3bc4bdb8	0.0060040615
172	0xbc557971	-0.013029442
173	0xbd821a56	-0.063526794
174	0xbdbdac75	-0.09261409
175	0xbd9f3eda	-0.0777566
176	0xbde5d6b6	-0.112225935
177	0xbdf73867	-0.12071305
178	0xbe22284f	-0.15835689
179	0xbe147a7d	-0.1449985
180	0x3d1d939c	0.03847085
181	0xbd1ccbbd	-0.038280237
182	0xbcf17730	-0.029475778
183	0xbdf88020	-0.12133813
184	0xbde4f70d	-0.11179934
185	0xbd942bd5	-0.07234923
186	0xbdb6d548	-0.08927399
187	0xbe0d783e	-0.138154
188	0xbde3bc3b	-0.111198865
189	0x3b9d459b	0.0047995574
190	0x3a899fd7	0.0010499906
191	0x3ce47516	0.027887862
192	0xbd1cd6a3	-0.03829063
193	0xbdc80c90	-0.09768021
194	0xbde7406e	-0.11291586
195	0xbddfb4fd	-0.10923193
196	0xbd981204	-0.07425311
197	0xbe0d7c53	-0.13816957
198	0x3ce8fdc0	0.02844131
199	0x3cb22924	0.021748133
200	0x3d48d62b	0.04903237
201	0xbd54f5b9	-0.051992152
202	0xbd869189	-0.065707274
203	0xbcfa7256	-0.030572098
204	0xbd98c08b	-0.074586
205	0xbe07a468	-0.1324631
206	0xbe036385	-0.12830932
207	0x3cac45b5	0.021029333
208	0x3c365b47	0.011130161
209	0x3da5e079	0.080994554
210	0x3c27829e	0.010224013
211	0xbd982cab	-0.07430395
212	0xbd217d81	-0.03942633
213	0xbdb9499a	-0.090472415
214	0xbde69f8d	-0.11260901
215	0xbd24ec60	-0.040264487
216	0x3e33af89	0.1754743
217	0x3dc23066	0.094818875
218	0x3e1f8689	0.15578665
219	0x3d5e2429	0.054233704
220	0x3da1f71d	0.07908461
221	0x3d5953d7	0.05305847
222	0x3cc44462	0.023958389
223	0xbc888b2c	-0.016667925
224	0xbb960255	-0.0045779147
225	0x3e7af8e4	0.24509007
226	0x3e5dfecf	0.21679233
227	0x3e2d5ee1	0.16930725
228	0x3db83301	0.08994103
229	0x3d9610e2	0.07327439
230	0x3de70c3e	0.11281632
231	0x3d9df9b6	0.07713644
232	0x3d114e3e	0.03547501
233	0x3dad7f4f	0.08471548
234	0x3ea3b077	0.3197057
235	0x3eb32304	0.34987652
236	0x3eaf7c63	0.34274587
237	0x3e67efd5	0.22650082
238	0x3e827870	0.25482512
239	0x3e824c57	0.25448868
240	0x3e529ab7	0.20566832
241	0x3e4ac215	0.19800599
242	0x3e565721	0.20931675
243	0x3c6fe2ce	0.014641477
244	0x3cb8fa49	0.022580283
245	0xbd46433e	-0.04840397
246	0x3c196f9c	0.009364989
247	0xbca324ca	-0.019915003
248	0x3bb320d2	0.005466559
249	0xbc15f3ba	-0.009152347
250	0x3c729c25	0.014807736
251	0xbd49790b	-0.0491877
252	0xbcd0f8a6	-0.02550919
253	0xbcc6678e	-0.0242193
254	0xbcfe2ef2	-0.031028245
255	0xbd3eedea	-0.04661361

conv1.bias f4 [32]
0	0xbcdb08fe	-0.026737686
1	0xbd34bbf2	-0.04412455
2	0xbd6d5e92	-0.057951517
3	0xbe1d483f	-0.15359591
4	0x3be9cb22	0.007134811
5	0x3db54f37	0.08853
6	0x3e29c502	0.16579059
7	0xbb9fbd38	-0.0048748516
8	0x3c7563c7	0.014977402
9	0x3bc4a631	0.006001257
10	0xbdd46773	-0.10371294
11	0xbe4ad6d4	-0.19808513
12	0xbbfe7003	-0.0077648177
13	0x3dbb1e73	0.09136667
14	0xbdace0a3	-0.084412836
15	0xbc99071e	-0.018680152
16	0xbd8d858f	-0.0691024
17	0xbd9e6b3d	-0.07735298
18	0x3c3aa61f	0.011392145
19	0xbdc6d81a	-0.09709187
20	0x3b8b70d2	0.0042553926
21	0x3d493286	0.04912045
22	0x3d24a6d4	0.040198162
23	0x3e7fc248	0.24976456
24	0x3c17e4c4	0.009270851
25	0x3c0bb02b	0.008525888
26	0xbd738c23	-0.059459817
27	0xbe48e29e	-0.19617698
28	0x3dd3e5e4	0.103465825
29	0xbdc734e2	-0.097268835
30	0xbe921718	-0.28533244
31	0xbcf8b699	-0.030360507

conv2.weight f4 [16, 32, 5, 5]
0	0x3d65b7c1	0.056083445
1	0xbd869540	-0.06571436
2	0xbcaf1eb4	-0.021376945
3	0x3d3acd9d	0.045606244
4	0xbd77bc6f	-0.06048244
5	0xbd3b8c42	-0.045788057
6	0xbd7812ea	-0.060564913
7	0xbcdb8a81	-0.026799442
8	0x3ca02b2c	0.019551836
9	0xbd6a6b62	-0.057231314
10	0xbd557384	-0.052112117
11	0x3d04644a	0.032322206
12	0xbd708770	-0.058722913
13	0x3cdb3347	0.02675785
14	0x3ce18a1e	0.02753168
15	0x3d0d2687	0.03446057
16	0xbcda364e	-0.026637223
17	0x3cabcdad	0.020972097
18	0x3c339093	0.010959762
19	0x3c375306	0.011189228
20	0xbd79b38d	-0.06096225
21	0xbb302090	-0.0026874878
22	0x3d09e5b7	0.03366634
23	0xbb82bbf3	-0.0039896904
24	0x3aa8ffcf	0.001289362
25	0xbd149cc1	-0.036282305
26	0x3cdd76d5	0.027034203
27	0x3d772348	0.06033638
28	0xbcaf2047	-0.021377696
29	0x3d1c2083	0.038116943
30	0xbd083f21	-0.03326333
31	0x3d773560	0.060353637
32	0x3d51210b	0.051056903
33	0x3c2647d4	0.010148961
34	0xbd60ee2e	-0.054914646
35	0x3c20cab7	0.009813956
36	0xbb4301ff	-0.0029755828
37	0xbc6c4ef6	-0.014423123
38	0x3d729e1a	0.05923281
39	0xb988076d	-0.00025945474
40	0xbd9245e9	-0.071422406
41	0x3c08dddd	0.008353678
42	0x3b47e4f4	0.0030501457
43	0xbd473887	-0.048637893
44	0x3d63cbda	0.05561433
45	0xbda2a830	-0.079422355
46	0xbd1bbc09	-0.03802112
47	0xbccedfb5	-0.025253156
48	0x3d66eac2	0.056376226
49	0xbbf2d9ab	-0.007411202
50	0x3d096f05	0.033553142
51	0xbd63b8db	-0.055596214
52	0x3c990a59	0.018681692
53	0xbda5af8f	-0.08090126
54	0xba92b644	-0.0011193235
55	0xbcffe2ee	-0.031236138
56	0x3d1510f6	0.03639313
57	0xbd6296e9	-0.0553197
58	0xbb391580	-0.0028241575
59	0xbd4b863e	-0.04968857
60	0xbda43c9c	-0.08019373
61	0x3d192b1b	0.037394624
62	0xbca4e735	-0.02012978
63	0xbb9897be	-0.004656761
64	0xbc716f12	-0.014735954
65	0x3b582080	0.0032978356
66	0xbd6d226a	-0.057894148
67	0x3d263020	0.04057324
68	0xbd4014dc	-0.046894893
69	0xbced1aca	-0.028943438
70	0xbc9710a1	-0.018440546
71	0x3c10eb25	0.008845125
72	0xbd86e015	-0.06585709
73	0x3ae0da05	0.0017154819
74	0xbd67da76	-0.056604825
75	0x3cac73cc	0.02105131
76	0xb9937d00	-0.00028131157
77	0x3c4ac5d8	0.012376271
78	0xbd0f136b	-0.034930628
79	0x3c890700	0.01672697
80	0x3d2e4162	0.042542823
81	0x3d006116	0.03134259
82	0x3d2284f6	0.039677583
83	0xbd2deb2f	-0.042460617
84	0x3d3346b0	0.043768585
85	0x3b27f660	0.0025629029
86	0x3c098180	0.008392692
87	0x3bf9d370	0.0076240823
88	0x3d254666	0.04035034
89	0x3d880199	0.0664093
90	0xbc6396bc	-0.013890918
91	0xbd5c5e3c	-0.053800806
92	0xbd8ecbc4	-0.06972459
93	0xba8009c0	-0.0009768531
94	0xbd6ef3a0	-0.058337808
95	0xbcd50e82	-0.026007894
96	0xbc6b7b80	-0.014372706
97	0x3d559080	0.05213976
98	0xbd2f3278	-0.04277274
99	0x3d1a35b6	0.03764888
100	0xbc9d4053	-0.019195711
101	0xbd1d8177	-0.038453545
102	0xbd496b0e	-0.04917436
103	0x3d1858fb	0.037194233
104	0x3c930f5e	0.017951664
105	0xbd4efe44	-0.050535455
106	0xbd04a1c3	-0.03238083
107	0x3d0dc915	0.034615595
108	0x3cc07d95	0.023497382
109	0x3cb932a3	0.022607153
110	0x3d5b6893	0.053566527
111	0x3d46cdc5	0.04853608
112	0xbcb43bb4	-0.022001125
113	0xbdace289	-0.08441646
114	0xbd6bcb05	-0.05756666
115	0xbd4c8976	-0.04993578
116	0xbcbc944b	-0.02301993
117	0x3c503557	0.01270803
118	0xbdae0450	-0.08496916
119	0x3d3e2be8	0.04642859
120	0xbd8a6120	-0.067568064
121	0xbce4b1ad	-0.027916754
122	0xbd31ba59	-0.043390606
123	0x3abaa388	0.001423941
124	0xbcccb515	-0.02498869
125	0x3d609ac9	0.054835115
126	0xbd368fbf	-0.04457068
127	0xbd82eb54	-0.063925415
128	0x3ceec37a	0.029145945
129	0xbcdc4998	-0.026890561
130	0xbd79b185	-0.06096031
131	0xbc27e4db	-0.0102474345
132	0x3d3cfd86	0.046140216
133	0xbd1ec934	-0.0387661
134	0xbbf143c1	-0.007362813
135	0x3c95f390	0.018304616
136	0x3cdc8c76	0.026922446
137	0xbdb99588	-0.09061724
138	0xbd8f27a4	-0.06989983
139	0xbd413641	-0.04717088
140	0xbcc5c03e	-0.02413952
141	0x3c804201	0.015656473
142	0x3d241386	0.04005768
143	0xbced23ea	-0.02894779
144	0xbd9123c0	-0.07086897
145	0x3d0f54e8	0.034993082
146	0xbd72174d	-0.059104253
147	0x3ce712e2	0.028207246
148	0xbd2d2f6f	-0.042281564
149	0x3d37a3c8	0.04483393
150	0xbd73b30e	-0.05949693
151	0x3cdbf709	0.026851194
152	0x3c5354da	0.012898648
153	0xbd92c495	-0.07166401
154	0xbd3d5f9c	-0.04623376
155	0xbda2c735	-0.07948152
156	0x3d5725b4	0.05252619
157	0xbc87b9dc	-0.016568117
158	0xbd34e67e	-0.044165127
159	0x3cf7086b	0.030155381
160	0xbd6fc631	-0.05853862
161	0xbda04d95	-0.078272976
162	0xbc71ba98	-0.01475396
163	0xbda29b7d	-0.07939813
164	0x3d04184a	0.032249726
165	0x3d609528	0.054829746
166	0xbda02ff5	-0.07821647
167	0xbcdada76	-0.026715498
168	0xbb913930	-0.004431866
169	0x3d3fb37f	0.04680204
170	0xbd3aa8c8	-0.04557112
171	0x3c24ff7a	0.010070676
172	0xbd719640	-0.05898118
173	0x3cae06f4	0.02124355
174	0xbd83120e	-0.06399928
175	0x3be82bd8	0.0070853047
176	0xbd8ef460	-0.069802046
177	0xbbec19fd	-0.0072052465
178	0x3d38b5e4	0.04509534
179	0xbcc03a66	-0.023465347
180	0x3d39ae09	0.04533199
181	0xbcf855fd	-0.03031444
182	0xbd5b0c87	-0.053478744
183	0xbb7141b3	-0.0036812841
184	0xbd1189d2	-0.035531826
185	0x3b91f3f4	0.0044541303
186	0xbd1d4bb1	-0.038402263
187	0xbc5143c8	-0.012772508
188	0x3d024129	0.031800423
189	0xbd636c55	-0.055523235
190	0xbca1077d	-0.019656891
191	0xbcfe83da	-0.031068731
192	0xbd7672b4	-0.060167983
193	0x3bc8a46a	0.0061231153
194	0xbc29a910	-0.010355249
195	0xbd5cb732	-0.053885646
196	0xbda49d44	-0.080378085
197	0x3cfe57b4	0.03104768
198	0xbd3a7632	-0.045522876
199	0xbc7ae694	-0.015313763
200	0x3d549691	0.051901404
201	0xbd7e089d	-0.062019933
202	0xba13fa91	-0.0005644942
203	0xbd419c5b	-0.047268253
204	0x3caca895	0.02107648
205	0xbca00bc0	-0.019536853
206	0x3cbdf400	0.023187637
207	0xbd182700	-0.03714657
208	0x3ccf549c	0.0253089
209	0xbcca88a0	-0.024723351
210	0xbceec30a	-0.029145736
211	0x3a1c6f75	0.0005967536
212	0xbd141c55	-0.036159832
213	0xbcd332ca	-0.025781054
214	0x3ca24e15	0.019812623
215	0x3c9002c7	0.01757945
216	0x3cc20b26	0.023686957
217	0x3cc4a1d7	0.024002953
218	0xbcbdf770	-0.023189276
219	0xbd87645f	-0.06610941
220	0x39dd94c5	0.00042263247
221	0x3d51f4a0	0.051258683
222	0x3bd23f8b	0.0064162663
223	0xbcb41c10	-0.021986037
224	0x3d3de46d	0.046360422
225	0xbd33af5c	-0.043868408
226	0xbd279047	-0.040909078
227	0xbd9078b1	-0.0705427
228	0xbcc7d470	-0.02439329
229	0x3bc2b0df	0.005941495
230	0x3c9c7514	0.019098796
231	0x3d2ab6c4	0.041678205
232	0xbd09b387	-0.033618476
233	0x3d4e6cb2	0.05039663
234	0xbd999bef	-0.07500445
235	0x3c839b03	0.016065126
236	0x3d17a304	0.0370207
237	0xbd546326	-0.051852368
238	0x3d625c15	0.055263598
239	0xbcdf2812	-0.027240787
240	0x3be26221	0.0069086705
241	0x3d531e6d	0.05154269
242	0x3caf3d1e	0.021391448
243	0x3c652ed4	0.0139882155
244	0x3d102be9	0.035198126
245	0x3c58327a	0.013195628
246	0x3d08cf1c	0.03340064
247	0x3c9a20e0	0.018814504
248	0xbc2ac9b3	-0.010424065
249	0xbc74a19b	-0.014931108
250	0xbd01167e	-0.03151559
251	0x3b0c7aec	0.0021435572
252	0xbc185f34	-0.009300042
253	0xbd6bc0e1	-0.05755699
254	0xbd8f52f3	-0.06998243
255	0xbd2b0c9e	-0.04176008

conv2.bias f4 [16]
0	0xbd09f1c5	-0.033677835
1	0xbccafa4b	-0.024777552
2	0x3eb96d2f	0.36216113
3	0x3eae70a8	0.34070325
4	0x3defbc0a	0.117057875
5	0x3de66735	0.11250154
6	0x3e2d7733	0.16940002
7	0xbcb7a04f	-0.022415308
8	0x3ddc0ebe	0.10744999
9	0x3c74d4f0	0.014943346
10	0x3c528b8b	0.012850652
11	0x3e17a1fd	0.14807887
12	0xbce82957	-0.028340025
13	0xbe9398d8	-0.28827548
14	0xbcefbc6e	-0.029264655
15	0xbd95ee72	-0.073208705

conv3.weight f4 [8, 16, 3, 3]
0	0x3d0e281c	0.03470622
1	0xbd667a57	-0.056269016
2	0x3e0bffa7	0.13671742
3	0xbe1d5f9f	-0.15368508
4	0x3cb29276	0.021798354
5	0xbd1e743f	-0.03868508
6	0x3e153208	0.14569867
7	0xbda361e5	-0.07977656
8	0x3d5fb558	0.054616302
9	0xbcb866ba	-0.022509921
10	0xbd49bb5c	-0.049250945
11	0xbd486be9	-0.048931036
12	0xbe07ecc2	-0.1327391
13	0xbe0bd999	-0.13657226
14	0x3d9d903e	0.07693528
15	0xbe0bd410	-0.13655114
16	0x3d8ca674	0.06867686
17	0x3df1b459	0.11801977
18	0xbd8f6281	-0.0700121
19	0xbbbb6acc	-0.0057195183
20	0x3dc34937	0.09535449
21	0xbda47cce	-0.08031617
22	0x3cab9af1	0.020947905
23	0x3db68646	0.089123294
24	0x3ddad917	0.10685938
25	0x3e795fa0	0.24352884
26	0x3e659156	0.22418723
27	0xbef11259	-0.4708431
28	0xbf35c904	-0.7100985
29	0xbf323f72	-0.6962806
30	0xbe931a3c	-0.28730953
31	0xbe875e05	-0.2643892
32	0xbdf5eff7	-0.1200866
33	0x3d58578d	0.05281787
34	0x3e39fa6d	0.18161936
35	0xbdfae7e3	-0.1225126
36	0xbd6d1662	-0.057882674
37	0xbd1b98a8	-0.03798738
38	0xbe1923fd	-0.14955135
39	0xbb82c74b	-0.0039910427
40	0x3e4af97c	0.19821733
41	0x3e20493f	0.15652941
42	0x3dd2385e	0.102646574
43	0x3e398be4	0.1811977
44	0x3d877294	0.06613651
45	0x3dd07fb3	0.10180607
46	0x3e4e7e03	0.20165257
47	0x3dd5dc24	0.10442379
48	0x3e23ad1e	0.15984008
49	0x3d1797ab	0.037009876
50	0xbd76f99d	-0.060296644
51	0x3ed74958	0.42048144
52	0x3e8974cf	0.2684693
53	0x3f1a6550	0.6031084
54	0x3d182f92	0.03715474
55	0xbe7aeb98	-0.24503934
56	0xbe9854ae	-0.29752105
57	0x3e316d8d	0.17326947
58	0xbc94c3cd	-0.018159771
59	0x3d41e0dd	0.047333587
60	0x3e495973	0.19663028
61	0x3e46db39	0.19419564
62	0x3e7d1e75	0.2471865
63	0x3c96a972	0.018391345
64	0xbde33d79	-0.11095709
65	0x3cf60efe	0.030036446
66	0x3e022faf	0.12713502
67	0xbe217853	-0.15768556
68	0x3becebbb	0.0072302497
69	0x3ba675c9	0.005079959
70	0x3d04d000	0.032424927
71	0xbdcc5251	-0.09976638
72	0xbd95809d	-0.07299922
73	0x3cce58a3	0.02518875
74	0xbe45bf56	-0.1931127
75	0x3cb83f7d	0.022491211
76	0x3e886253	0.26637515
77	0x3cb448a9	0.022007303
78	0x3dcedb76	0.101004526
79	0x3da5c33e	0.0809388
80	0x3de95691	0.11393464
81	0xbd0528c0	-0.032509565
82	0xbd7132f8	-0.0588865
83	0xbc59f2d3	-0.013302523
84	0xbdc503a9	-0.09619839
85	0xbc3b3ad7	-0.011427603
86	0x3e21f0d0	0.15814519
87	0xbb7e9178	-0.003884403
88	0xbb946812	-0.0045290077
89	0x3b7f044d	0.0038912476
90	0x3dc67d07	0.09691816
91	0x3cf269b6	0.029591423
92	0x3d75ed97	0.060041036
93	0xbd87f142	-0.06637813
94	0xbdd14635	-0.10218469
95	0xbe175b6c	-0.14780968
96	0xbd711393	-0.058856558
97	0xbd93d096	-0.07217519
98	0x3e0cbab4	0.13743097
99	0xbefdc444	-0.495638
100	0xbec84ccf	-0.391211
101	0xbdb07499	-0.08615989
102	0xbe9a7bb2	-0.30172497
103	0x3c1f3b8c	0.009718787
104	0xbd077eb5	-0.03307982
105	0xbd55994e	-0.052148156
106	0x3edda7cd	0.43292084
107	0x3ea52dee	0.32261604
108	0xbd6d6bc6	-0.05796411
109	0x3dc1ada2	0.09456946
110	0xbc85d9a1	-0.016339125
111	0x3e7f907b	0.24957459
112	0xbd214151	-0.03936893
113	0xbca49474	-0.02009032
114	0xbe2c90f3	-0.16852169
115	0xbb6184c3	-0.0034411408
116	0x3db5e3d4	0.088813454
117	0x3e9cbeb6	0.3061425
118	0x3d4601ec	0.048341677
119	0x3d05ea42	0.03269411
120	0x3de266bb	0.110547505
121	0xbe4d8274	-0.20069295
122	0xbda227b1	-0.07917727
123	0xbe25e3cd	-0.1620018
124	0xbe441899	-0.19150008
125	0xbeaadff5	-0.3337399
126	0x3df73ebb	0.12072512
127	0xbb353cf7	-0.0027654746
128	0x3dd99065	0.10623244
129	0x3e25cd66	0.16191635
130	0x3e162f5a	0.146665
131	0x3cdacf7a	0.02671026
132	0xbe18229c	-0.14856952
133	0x3e1c00cf	0.15234683
134	0x3d569e7b	0.052397233
135	0xbd194c5c	-0.037426338
136	0xbe182252	-0.14856842
137	0x3cb03c99	0.02151327
138	0xbdda130f	-0.106481664
139	0xbdcb194d	-0.09916935
140	0xbc1fd93e	-0.009756384
141	0x3e413903	0.18869404
142	0x3c58a154	0.013222057
143	0xbe1a8ab8	-0.1509198
144	0xbdc71406	-0.09720616
145	0x3e04c248	0.12964737
146	0xbe15a6fc	-0.1461448
147	0xbe21862c	-0.15773839
148	0xbd6c3919	-0.05767164
149	0x3c1d47b8	0.009599619
150	0x3e0afaba	0.13572207
151	0xbd2587ec	-0.04041283
152	0x3c93a67c	0.018023722
153	0xbbb7d075	-0.005609567
154	0x3d3727fc	0.044715866
155	0x3aacdc83	0.0013188276
156	0x3dcf8004	0.10131839
157	0xbb5efcdc	-0.0034025228
158	0x3d7ace52	0.06123192
159	0x3e00a23b	0.12561886
160	0xbe3d5f94	-0.18493491
161	0xbd33683e	-0.043800585
162	0xbe3b2d2e	-0.18278953
163	0x3ce36b5b	0.027761152
164	0x3d5c7ab0	0.05382794
165	0x3d405fbd	0.046966303
166	0x3e46cf32	0.19414976
167	0xbcfff933	-0.031246757
168	0x3e8666c2	0.26250273
169	0xbb9c5930	-0.004771374
170	0xbc292416	-0.010323545
171	0xbe9bac3b	-0.3040484
172	0x3d876fd1	0.06613124
173	0x3d3ccb3f	0.046092268
174	0xbe3d40f4	-0.18481809
175	0xbd4a4d69	-0.04939023
176	0x3dce9586	0.10087113
177	0x3e18c862	0.1492019
178	0x3e787bcd	0.24265976
179	0x3e787ab4	0.24265558
180	0x3cad179a	0.021129418
181	0xbd7928b5	-0.060829837
182	0xbe34cfc1	-0.17657377
183	0x3e5d8b3e	0.21635148
184	0x3cae5332	0.021279905
185	0xbc59be38	-0.013289981
186	0x3dfb1239	0.12259335
187	0x3d555ffa	0.052093484
188	0xbc6f618e	-0.014610661
189	0x3e237670	0.15963149
190	0x3e094a14	0.13407165
191	0xbbcb2c2e	-0.006200335
192	0x3d841a74	0.06450358
193	0xbe06c347	-0.1316043
194	0xbbb2d9a5	-0.005458074
195	0x3e7d27bc	0.24722189
196	0xbe03d525	-0.12874277
197	0xbcf7ddb1	-0.030257078
198	0xbd14e1b5	-0.036348063
199	0xbe1f75e3	-0.15572314
200	0xbe056a99	-0.13028945
201	0xbc3de7a0	-0.011590868
202	0xbe1e3735	-0.15450747
203	0x3e1ec39b	0.15504305
204	0x3e52b6aa	0.20577493
205	0x3dee2caf	0.116296165
206	0x3e42d0e0	0.19024992
207	0x3d095b4c	0.033534333
208	0x3e0a1167	0.13483201
209	0xbc25c916	-0.010118743
210	0xbe134fc1	-0.14385892
211	0xbcc18666	-0.023623656
212	0xbd69c237	-0.057069983
213	0xbde088bf	-0.10963582
214	0x3d16263e	0.036657564
215	0x3cb8a46b	0.022539338
216	0x3ca977f5	0.020687083
217	0xbe24d494	-0.16096717
218	0x3e24189f	0.16025017
219	0x3d397e11	0.045286242
220	0x3de9c632	0.11414756
221	0x3df7dba8	0.12102443
222	0x3de3bfce	0.11120568
223	0x3df503af	0.11963593
224	0xbd9ec09a	-0.077515796
225	0xbd44c15d	-0.048035968
226	0xbe02539f	-0.12727211
227	0x3c827b42	0.015927915
228	0x3dac3622	0.084087625
229	0xbd5d5334	-0.054034427
230	0xbc112864	-0.0088597275
231	0xbce0d893	-0.02744702
232	0x3d5ea120	0.05435288
233	0xbd59b771	-0.05315346
234	0xbdeeacb8	-0.11654037
235	0xbb3b8dd9	-0.0028618483
236	0x3cde1579	0.027109848
237	0xbc29fdd0	-0.010375455
238	0xbd8eaf5a	-0.069670394
239	0x3d15fae6	0.03661623
240	0xbcf5e246	-0.030015122
241	0xbd0acf23	-0.033888947
242	0xbdfd4225	-0.12366132
243	0xbdb97ba9	-0.090567894
244	0x3e3148fe	0.17313
245	0x3e912310	0.28347063
246	0xbcf9e416	-0.030504268
247	0xbcbd624e	-0.023118164
248	0x3da1f5f2	0.079082385
249	0xbe7a5b95	-0.24448998
250	0x3ca795f0	0.020457238
251	0xbcea4b6d	-0.028600419
252	0xbd6a8609	-0.057256732
253	0x3dcfb1f0	0.10141361
254	0xbdaeb232	-0.08530082
255	0x3d96a902	0.073564544

conv3.bias f4 [8]
0	0xbdbee415	-0.09320847
1	0x3db37560	0.08762622
2	0xbd1dc7e0	-0.038520694
3	0x3d243d49	0.04009751
4	0x3d3666bd	0.044531573
5	0xbe60488f	-0.21902679
6	0xbc5e006e	-0.013549907
7	0x3e58e012	0.21179226

convt1.weight f4 [8, 8, 3, 3]
0	0x3d15b731	0.036551658
1	0xbe733cbb	-0.23753636
2	0xbd9989dc	-0.07496998
3	0x3ea895cc	0.32926786
4	0xbd9e6316	-0.07733743
5	0xbec73316	-0.38906163
6	0x3e78c72e	0.24294731
7	0x3e6c8d04	0.23100668
8	0x3e41b7b0	0.18917727
9	0xbe3f5f4d	-0.18688698
10	0xbe51fbd6	-0.20506224
11	0xbe38f0b1	-0.18060566
12	0xbe1beff1	-0.15228249
13	0x3dcc2697	0.09968298
14	0x3e691a96	0.22764048
15	0x3e7e0ce5	0.24809606
16	0xbd961907	-0.07328992
17	0x3eb20676	0.34770554
18	0x3cf89d63	0.030348485
19	0x3df7154b	0.12064608
20	0xbdb7a06f	-0.08966147
21	0xbf3127d7	-0.69201416
22	0xbd3b6d3d	-0.045758475
23	0xbc91d31a	-0.017800856
24	0xbd9c0506	-0.07618146
25	0xbd973f21	-0.07385088
26	0x3e4a5a31	0.19760968
27	0xbe0578bb	-0.13034336
28	0xbd62fc7e	-0.055416577
29	0x3dd87c7e	0.1057062
30	0x3c8f134b	0.017465254
31	0x3dfc3cf9	0.12316317
32	0x3ed5c856	0.41754407
33	0xbde75d08	-0.11297041
34	0x3e3c8aa2	0.18412259
35	0x3ed0e1e5	0.40797344
36	0x3b555ba5	0.0032555845
37	0x3daf4eaa	0.08559926
38	0x3e866ab4	0.26253283
39	0xbdd7c3c4	-0.10535386
40	0xbe0716f8	-0.13192356
41	0x3e11e8c5	0.14248951
42	0x3ba9d898	0.0051832907
43	0xbe677f68	-0.22607195
44	0x3d983dd6	0.07433669
45	0x3cd958d3	0.026531613
46	0x3d3262cb	0.043551248
47	0xbd20d117	-0.039261904
48	0x3e1ab18c	0.15106791
49	0xbc2c7f9d	-0.010528472
50	0xbe54b5c8	-0.20772469
51	0xbd864900	-0.065568924
52	0xbc68cc1a	-0.014208818
53	0xbce3a824	-0.027790137
54	0x3ec39bcc	0.382048
55	0xbd08ca4a	-0.033396043
56	0xbe75b492	-0.23994663
57	0x3e437a92	0.19089726
58	0x3d016fa9	0.031600628
59	0x3d8cd713	0.0687696
60	0xbe8c31ea	-0.2738183
61	0xbd3c5b18	-0.04598531
62	0xbb3c17ef	-0.002870079
63	0xbed51d48	-0.41623902
64	0x3ecde8f4	0.40216792
65	0xbd54d490	-0.051960528
66	0xbf0fa0bd	-0.5610464
67	0x3e3bc591	0.18337084
68	0x3a60438a	0.0008554986
69	0xbdef5953	-0.11686959
70	0xbbc8513c	-0.0061131995
71	0x3ba6a068	0.00508504
72	0x3ddd80dd	0.10815594
73	0xbdecd9ac	-0.11564955
74	0xbdb6c0eb	-0.08923515
75	0xbe00e6e6	-0.12588081
76	0xbdb60a6e	-0.08888708
77	0xbde285f3	-0.11060705
78	0xbd0aa97d	-0.033853043
79	0x3e1c5b1b	0.15269129
80	0xbb5589c5	-0.0032583338
81	0x3db1fd24	0.08690861
82	0xbc889bef	-0.016675917
83	0xbd86b292	-0.06577028
84	0x3e4f0f1a	0.20220605
85	0x3e197fc3	0.14990143
86	0x3e0dadc9	0.13835825
87	0x3cc2ad72	0.023764346
88	0x3e2a6964	0.16641766
89	0x3e6fb597	0.23409115
90	0x3d5af391	0.05345494
91	0x3e2ff9c0	0.17185116
92	0x3e94a56b	0.29032454
93	0x3e99c062	0.3002959
94	0xbd7195b1	-0.058980647
95	0xbe02389b	-0.12716906
96	0xbca07550	-0.019587189
97	0x3d9ac8e1	0.07557846
98	0xbd04e7bc	-0.03244756
99	0x3e829564	0.255046
100	0xbe8332bc	-0.25624645
101	0x3e77de3e	0.24205872
102	0xbe70ffc0	-0.23535061
103	0x3d880286	0.06641106
104	0x3e677877	0.22604547
105	0xbead1fa9	-0.33813217
106	0xbce67b71	-0.028135033
107	0x3d1e043d	0.03857826
108	0x3dd4451b	0.10364743
109	0xbd832c92	-0.064049855
110	0xbcb9f57e	-0.022700068
111	0xbda115ad	-0.078654625
112	0xbda25fc9	-0.07928426
113	0x3e13fb21	0.14451267
114	0x3d3b791f	0.045769807
115	0xbeb49320	-0.35268497
116	0x3dcb2e84	0.099209815
117	0xbd324e50	-0.043531716
118	0xbb24eb61	-0.002516471
119	0xbe137b9b	-0.1440262
120	0x3d939f2c	0.07208094
121	0x3d5b29fe	0.053506844
122	0xbe57869e	-0.21047446
123	0x3e5d8e06	0.21636209
124	0x3dce2151	0.10064948
125	0xbcf479a3	-0.029843157
126	0xbebaf936	-0.36518258
127	0xbe902af7	-0.2815778
128	0xbe3c0715	-0.18362077
129	0xbe10d598	-0.1414398
130	0xbd8f5abc	-0.06999728
131	0xbe9156be	-0.28386492
132	0xbd8eeaf3	-0.06978407
133	0x3db4cb60	0.08827853
134	0x3e4b8078	0.19873226
135	0xbe418536	-0.18898472
136	0xbea79e50	-0.3273797
137	0xbf5294af	-0.82258123
138	0xbed09892	-0.40741402
139	0xbcb067a7	-0.0215338
140	0x3e2bb17e	0.16766927
141	0x3e08a618	0.1334461
142	0xbdb22f0e	-0.08700381
143	0x3e1414da	0.14461079
144	0x3d8def8c	0.069304556
145	0xbd8ef5b7	-0.0698046
146	0x3c9f2fe3	0.019432014
147	0xbda37ac0	-0.07982397
148	0xbe10b65b	-0.14132063
149	0xbe4a88fe	-0.19778821
150	0x3e1ea65f	0.15493153
151	0x3e36b0bb	0.17840855
152	0x3e21182b	0.15731876
153	0xbd973b8c	-0.073844045
154	0xbe07b77c	-0.13253587
155	0xbd12bb2c	-0.035823032
156	0x3de90a08	0.113788664
157	0xbe0b9c2d	-0.13633795
158	0x3d64f2c9	0.0558956
159	0xbd810c87	-0.063012175
160	0xbdf61ff8	-0.12017816
161	0xbdb0efee	-0.08639513
162	0x3e3f44ef	0.1867864
163	0x3dc6f8f9	0.097154565
164	0x3e414a66	0.18876037
165	0xbe06bcb8	-0.13157928
166	0xbd92ceab	-0.07168325
167	0xbe20fe67	-0.15722047
168	0x3e4afcc2	0.19822982
169	0x3cb6282e	0.022235956
170	0xbde9abfd	-0.11409757
171	0xbcb53b2e	-0.022122946
172	0xbb2eb34b	-0.002665716
173	0x3ce9cffa	0.028541554
174	0xbe3c066c	-0.18361825
175	0xbc51e6b2	-0.01281135
176	0xbd8ae8a1	-0.06782652
177	0x3d756c76	0.05991789
178	0x3d294391	0.041324202
179	0xbdd86782	-0.105666175
180	0xbdad771f	-0.08469986
181	0xbc9de474	-0.019273974
182	0x3d92d04c	0.07168636
183	0x3e5417d8	0.2071222
184	0xbd88fab3	-0.06688442
185	0xbe21c071	-0.15796067
186	0xbd329124	-0.043595448
187	0x3d2ba36d	0.0419039
188	0x3d83abe4	0.0642927
189	0xbc941d58	-0.018080398
190	0xbddea338	-0.10870975
191	0xbe2c5aad	-0.16831465
192	0x3d41f130	0.047349155
193	0xbe49bd24	-0.19701058
194	0x3e270a09	0.16312422
195	0xbe21ff0e	-0.15819952
196	0xbe3c1a6b	-0.18369453
197	0xbb6f201a	-0.003648764
198	0x3d7f8d88	0.062390834
199	0xbdf09a05	-0.11748127
200	0xbd3a1d77	-0.045438256
201	0x3dcbdc5c	0.099541396
202	0xbdc5943c	-0.09647414
203	0x3c233130	0.009960458
204	0x3e4a83bc	0.19776815
205	0x3dadf557	0.084940605
206	0x3d3a97eb	0.045555037
207	0xbc429c80	-0.011878133
208	0x3e27ec92	0.16398838
209	0xbbfca720	-0.0077103525
210	0x3c966750	0.01835981
211	0x3e0292f8	0.12751377
212	0xbd822c0c	-0.063560575
213	0x3da9c348	0.082892
214	0xbe208f41	-0.15679647
215	0xbdd5f0e0	-0.10446334
216	0xbdf437ff	-0.11924743
217	0xbe83be65	-0.25731197
218	0xbe5c63e1	-0.21522476
219	0x3e19a66a	0.15004888
220	0xbf773be8	-0.96575785
221	0xbea0e7e5	-0.3142692
222	0xbd2c83cf	-0.04211789
223	0x3e9c1a7b	0.30488953
224	0x3e8ed578	0.2789724
225	0xbc95c412	-0.01828197
226	0x3d9b83c4	0.07593492
227	0xbe1bf4af	-0.15230058
228	0x3d168864	0.036751166
229	0x3e12e902	0.14346698
230	0x3daee957	0.085406
231	0xbe5e4e6e	-0.21709606
232	0xbe92a688	-0.28642678
233	0xbddf878f	-0.109145276
234	0xbf7d7fd1	-0.9902316
235	0xbf7b6b65	-0.98210746
236	0xbf271a2c	-0.6527431
237	0x3ebea8cf	0.37238166
238	0xbda223a4	-0.07916954
239	0x3dd6b514	0.10483757
240	0xbe8af5cc	-0.27140653
241	0xbf31752e	-0.69319427
242	0x3e8b7166	0.27234954
243	0xbebc3cdb	-0.3676518
244	0xbe7df3d7	-0.24800049
245	0xbf327ed3	-0.6972477
246	0x3eaf91a8	0.34290814
247	0x3d593f9b	0.053039175
248	0xbe585a97	-0.21128307
249	0x3c8e5051	0.017372282
250	0x3c30f802	0.010801317
251	0x3e3ad566	0.18245468
252	0xbd70d274	-0.058794454
253	0x3ceb1129	0.028694706
254	0x3e7e9d3a	0.24864665
255	0x3dd0f3b8	0.10202736

convt1.bias f4 [8]
0	0x3d0698a9	0.03286043
1	0x3d793a17	0.060846414
2	0x3dfcd224	0.12344769
3	0xbdb175d9	-0.08665056
4	0x3de3bd4b	0.11120089
5	0xbcc5cf6d	-0.02414676
6	0xbc6e4d84	-0.014544848
7	0x3e0b0ef3	0.13579921

convt2.weight f4 [8, 16, 5, 5]
0	0xbe8879bd	-0.2665538
1	0xbe64bba4	-0.22337204
2	0xbe008e8b	-0.12554376
3	0x3c9d5aa2	0.019208256
4	0xbe2288e9	-0.1587254
5	0xbe022ad3	-0.12711649
6	0xbe196d95	-0.14983208
7	0xbdced494	-0.1009914
8	0xbe5010d2	-0.20318916
9	0xbc949f59	-0.01814239
10	0xbc4ea500	-0.012612581
11	0xbd992bcf	-0.07479059
12	0x3ba6dd0a	0.005092268
13	0x3e2afada	0.16697255
14	0x3c805703	0.01566649
15	0xbde29160	-0.11062884
16	0xbe5fc758	-0.21853387
17	0xbe6566da	-0.22402516
18	0xbdbf1b05	-0.093313254
19	0xbc9e54cc	-0.019327544
20	0x3c32ccd1	0.01091309
21	0xbe3de7fd	-0.18545528
22	0xbe1cdf4b	-0.15319555
23	0x3b642aa4	0.0034815455
24	0x3c6a6f1b	0.014308716
25	0xbdfd32b7	-0.12363189
26	0xbd0013b5	-0.031268794
27	0xbed22529	-0.41043976
28	0xbd5a3760	-0.053275466
29	0xbe1d4372	-0.1535776
30	0xbdb5c617	-0.08875673
31	0xbdf876c8	-0.12132031
32	0x3c09b24c	0.008404326
33	0xbd1ac29e	-0.037783258
34	0xbe112f1f	-0.14178132
35	0x3d044649	0.03229359
36	0xbda49567	-0.08036309
37	0xbe3e85fc	-0.18605798
38	0xbd2f0155	-0.04272588
39	0x3deb9c82	0.11504461
40	0xbd75f77e	-0.06005048
41	0xbe26fc98	-0.16307294
42	0xbbc298c2	-0.0059386203
43	0xbd736db8	-0.059430808
44	0xbd5b05e5	-0.05347242
45	0x3d5eb001	0.05436707
46	0xbdc54376	-0.09632008
47	0xbe550b80	-0.20805168
48	0xbd3fcc92	-0.046825953
49	0x3d6aa2d9	0.05728421
50	0x3dfcddaa	0.123469666
51	0x3b973f1f	0.004615679
52	0x3d1b5bcd	0.037929345
53	0xbc9b1830	-0.018932432
54	0xbe6076f3	-0.21920376
55	0x3dbf11e7	0.093295865
56	0x3d6ee26b	0.058321398
57	0x3d6717dd	0.056419242
58	0xbc9b60ca	-0.018967051
59	0x3dc1de8a	0.09466274
60	0x3dd93ebf	0.10607671
61	0x3c764aa4	0.015032444
62	0xbbb57fa0	-0.0055388957
63	0x3e218ab8	0.15775573
64	0x3cf9357f	0.030421017
65	0x3c44f003	0.012020114
66	0xbc325e88	-0.010886796
67	0xbd0c8222	-0.03430379
68	0x3dd474c7	0.10373836
69	0x3daaf798	0.08348006
70	0x3d12d30a	0.035845794
71	0x3c895eeb	0.016768893
72	0x3df13d0d	0.11779223
73	0xbdb8c7f4	-0.09022513
74	0xbd456a65	-0.04819717
75	0x3e93d705	0.28874984
76	0xbd5ca591	-0.053868834
77	0xbdf60483	-0.12012579
78	0xbc637a8f	-0.013884201
79	0x3e179e80	0.14806557
80	0x3e2204bf	0.15822123
81	0xbd804fa8	-0.06265193
82	0xbd9ea365	-0.07746009
83	0x3c234821	0.009965927
84	0x3df558f7	0.11979859
85	0x3d800e15	0.06252686
86	0x3e1496d6	0.14510664
87	0xbd30fa45	-0.043207426
88	0x3d983dd0	0.07433665
89	0x3e371bcd	0.17881699
90	0x3c56874c	0.013093781
91	0x3e057cdb	0.1303591
92	0xbd9acb68	-0.07558328
93	0x3d9a6bb1	0.07540072
94	0xbe47aba0	-0.19499063
95	0xbcb6b50c	-0.022303127
96	0xbecb6f41	-0.39733317
97	0xbd144faf	-0.036208805
98	0x3d6d345a	0.057911254
99	0xbeabb50e	-0.3353657
100	0x3d16d710	0.036826193
101	0xbd4a6ad5	-0.04941829
102	0x3e1ad615	0.15120728
103	0xbd497c4f	-0.049190816
104	0x3dad9835	0.08476297
105	0x3d0025e1	0.031286124
106	0x3daa6aaf	0.083211295
107	0xbdddf00e	-0.108368024
108	0x3da50e69	0.08059389
109	0x3ce2fe59	0.027709173
110	0xbec25985	-0.37958923
111	0xbeda902b	-0.42688116
112	0x3dddac9f	0.108239405
113	0xbe47a7aa	-0.19497553
114	0xbdd15148	-0.10220581
115	0xbe06c9d2	-0.13162926
116	0xbdee3d51	-0.11632789
117	0x3dfc5938	0.123217046
118	0xbb9a1e1f	-0.0047032977
119	0x3ce136de	0.027491983
120	0xbeaa001e	-0.33203214
121	0x3ca59c39	0.020216094
122	0x3dcb72f5	0.09934036
123	0xbd251fbf	-0.04031348
124	0xbe21d093	-0.15802221
125	0x3d8cb229	0.06869919
126	0x3dd595cd	0.10428963
127	0x3d9817ee	0.07426439
128	0xbe21ba2e	-0.15793678
129	0xbcf3e9ce	-0.029774573
130	0x3e28dc50	0.16490293
131	0x3daea245	0.08527044
132	0xbdab499d	-0.0836365
133	0xbc2c48af	-0.010515376
134	0xbdaae704	-0.08344844
135	0x3e4d829c	0.20069355
136	0x3da9d076	0.08291714
137	0xbddcf7ab	-0.107894264
138	0xbebd33fa	-0.36953717
139	0x3d114446	0.0354655
140	0xbbe8f2cd	-0.0071090222
141	0xbe455dc5	-0.19274051
142	0x3b1b0926	0.0023656576
143	0x3d4171ae	0.047227554
144	0xbdea9f8f	-0.11456215
145	0x3db80519	0.08985347
146	0xbdbf091f	-0.093279116
147	0xbe24bbfe	-0.16087338
148	0xbe332043	-0.17492776
149	0xbdbe7b0a	-0.093008116
150	0xbdfd4b00	-0.12367821
151	0x3e4d32a4	0.20038849
152	0x3e90ba37	0.2826707
153	0xbe387926	-0.18014964
154	0xbdb8328d	-0.08994017
155	0xbdf60550	-0.12012732
156	0xbe4d32f6	-0.20038971
157	0x3d5da5b0	0.05411309
158	0xbce467f6	-0.027881604
159	0x3dd5d13d	0.104403
160	0x3dcf0654	0.10108629
161	0x3e61dc42	0.22056678
162	0xbe811f94	-0.25219405
163	0xbe58395c	-0.21115631
164	0x3e7459f4	0.2386244
165	0x3c373922	0.011183055
166	0x3e5ac80f	0.21365379
167	0xbc46d6e6	-0.012136197
168	0x3e103513	0.14082746
169	0xbe05be9b	-0.13060991
170	0xbe052b9d	-0.13004918
171	0xbf020fed	-0.5080555
172	0xbda9cbb6	-0.08290808
173	0x3cb9b88b	0.022671005
174	0xbd86a406	-0.06574254
175	0x3e2958e4	0.16537815
176	0xbdb7646e	-0.08954702
177	0x3e335675	0.1751345
178	0x3e4bfcc5	0.19920643
179	0x3e492bb5	0.19645579
180	0xbd79342e	-0.060840778
181	0xbe304af6	-0.17216095
182	0x3df7b9dd	0.120959975
183	0xbd697a35	-0.05700131
184	0xbe1333b3	-0.1437519
185	0x3d5c28af	0.053749736
186	0x3d40beb4	0.04705687
187	0xbe16d7c1	-0.14730741
188	0xbcf1119f	-0.029427348
189	0x3e320f4f	0.17388652
190	0xbe06eabc	-0.13175482
191	0xbdc02098	-0.09381217
192	0x3ea394cc	0.3194946
193	0xbe32870a	-0.17434326
194	0x3dae44d9	0.085092254
195	0x3deb483f	0.11488389
196	0xbcae4d2c	-0.021277033
197	0xbe22ea39	-0.15909661
198	0x3e34b76b	0.17648093
199	0x3e13675a	0.14394894
200	0x3d6dee8f	0.058088835
201	0x3e71c82c	0.23611516
202	0x3dac8504	0.08423808
203	0x3e17aee1	0.14812805
204	0x3df44c35	0.11928598
205	0xbe003ac0	-0.12522411
206	0x3e1339b2	0.14377478
207	0xbe79751d	-0.24361081
208	0x3d698183	0.057008278
209	0x3ea5ea8a	0.32405502
210	0x3d281902	0.041039474
211	0xbe2221be	-0.15833184
212	0x3d5a5e27	0.053312447
213	0xbd1d0992	-0.038339205
214	0x3d940d29	0.072290726
215	0xbe8f20ff	-0.27954862
216	0xbdce81fc	-0.10083386
217	0x3e0bbee1	0.13647033
218	0x3dd9c281	0.10632802
219	0xbdb9c8ee	-0.090715274
220	0x3debdbaa	0.11516507
221	0xbd86246f	-0.06549918
222	0xbd04e7f2	-0.032447763
223	0xbf173e58	-0.59079504
224	0x3d80e380	0.06293392
225	0xbdef785a	-0.11692877
226	0xbe13ed8e	-0.14446089
227	0xbc9fb49b	-0.0194953
228	0x3d284c54	0.041088417
229	0xbc9ca8fd	-0.019123549
230	0xbcecee28	-0.028922155
231	0x3e6889ee	0.22708866
232	0xbe3d05af	-0.184592
233	0xbe29a9fa	-0.16568747
234	0xbd97e047	-0.074158244
235	0x3d643f1f	0.05572426
236	0xbd9055b2	-0.07047595
237	0x3d3e8394	0.0465122
238	0x3c83b045	0.016075263
239	0x3db9279a	0.090407565
240	0x3e7d7127	0.24750195
241	0x3d444597	0.04791793
242	0x3dc49a59	0.09599752
243	0xbe336eed	-0.17522784
244	0xbb3c1333	-0.0028697967
245	0x3defd106	0.1170979
246	0x3e8eda30	0.2790084
247	0x3de406a5	0.1113408
248	0x3d7099b9	0.05874035
249	0x3e2369e4	0.15958363
250	0x3d455d2b	0.048184555
251	0xbd5e34b0	-0.054249465
252	0xbe7422b4	-0.23841363
253	0x3e2a7d5b	0.16649382
254	0x3e2767c3	0.16348176
255	0xbd6ffbe1	-0.05858982

convt2.bias f4 [16]
0	0x3d9c9b1b	0.076467715
1	0x3e29e5f0	0.1659162
2	0x3dc1b549	0.094584055
3	0x3d5626be	0.05228304
4	0x3d999bd9	0.07500429
5	0x3dcaab37	0.09895938
6	0x3b8766eb	0.004132142
7	0x3d76dea2	0.060270913
8	0x3cee8846	0.029117715
9	0xbcbcb6a7	-0.023036314
10	0x3daf6f56	0.085661575
11	0xbd89b098	-0.06723136
12	0x3da90705	0.08253292
13	0xbd3d3d3b	-0.046200972
14	0xbca48900	-0.020084858
15	0x3cb57b9b	0.022153666

convt3.weight f4 [16, 32, 9, 9]
0	0x3d8183e2	0.06323983
1	0x3dc193ac	0.09451994
2	0xbea7be32	-0.32762295
3	0xbe09f28a	-0.13471428
4	0x3e2b0aa1	0.16703273
5	0xbed29cc8	-0.4113524
6	0xbcd25bbf	-0.025678514
7	0x3ceb0531	0.028688999
8	0x3e114fd5	0.1419061
9	0xbe972c3f	-0.29525945
10	0xbe039144	-0.12848383
11	0x3d526cb1	0.051373187
12	0xba87d80f	-0.0010364073
13	0x3ea873fe	0.32900995
14	0xbb8453b6	-0.0040382994
15	0xbe760439	-0.24025048
16	0x3d98a617	0.07453554
17	0xbe5228e6	-0.20523414
18	0xbe85a66e	-0.26103538
19	0xbe9de3ea	-0.30837947
20	0x3e0fbf9f	0.14037941
21	0xbe2c06f2	-0.16799524
22	0xbd8f98a9	-0.070115395
23	0xba119998	-0.0005554198
24	0xbdfbcc56	-0.12294833
25	0xbf095628	-0.5364709
26	0x3eee43c6	0.46536082
27	0x3e487d84	0.1957913
28	0x3b2564c1	0.0025237056
29	0xbde7d9cc	-0.11320838
30	0x3e5721ee	0.21009037
31	0x3e354151	0.17700697
32	0xbe16c4a4	-0.1472345
33	0x3d355c19	0.044277284
34	0x3e5f9c00	0.21836853
35	0x3e4634b6	0.19356045
36	0xbebbcd6d	-0.36680165
37	0xbc46c140	-0.012131035
38	0xbcbdd8d2	-0.023174677
39	0xbe844f7b	-0.2584189
40	0xbe166429	-0.14686646
41	0xbebf3b3b	-0.37349877
42	0xbe7ebd7f	-0.24876975
43	0xbd5c2576	-0.053746663
44	0xbed02fb5	-0.40661398
45	0x3dfbe644	0.12299779
46	0xbd45c7c4	-0.048286214
47	0xbd610a59	-0.05494151
48	0xbd14af54	-0.03630002
49	0x3e3dfeb4	0.18554193
50	0xbde3a8d6	-0.11116187
51	0xbe3efe45	-0.18651684
52	0xbe6daafb	-0.23209755
53	0xbe494d71	-0.19658448
54	0x3db81c17	0.08989733
55	0xbe7881cb	-0.24268262
56	0xbd9fcfb3	-0.07803287
57	0x3e410777	0.18850504
58	0xbec8bf08	-0.39208245
59	0x3cd38d2f	0.025824158
60	0xbe9a2b3f	-0.3011112
61	0xbe58422e	-0.21118996
62	0x3e93fb02	0.2890244
63	0xbbfefa73	-0.0077813207
64	0xbebd008a	-0.36914474
65	0x3cfe3fc8	0.031036273
66	0xbcfaf791	-0.030635627
67	0xbefd5ec4	-0.49486363
68	0xbf031277	-0.5120005
69	0x3ce3d9eb	0.027813872
70	0xbe09dc51	-0.1346295
71	0xbed60b01	-0.4180527
72	0xbeccb0b8	-0.39978576
73	0x3d06232d	0.03274839
74	0x3db8368e	0.089947805
75	0xbde705c5	-0.11280397
76	0xbd91897c	-0.07106301
77	0xbe988b23	-0.29793653
78	0xbe5d1666	-0.21590576
79	0x3e3c8f9f	0.18414162
80	0xbda2bfc3	-0.07946732
81	0xbc278252	-0.010223942
82	0xbca036ba	-0.019557346
83	0x3ae015dd	0.001709636
84	0xbd01fae9	-0.031733427
85	0xbcb9e5a3	-0.022692507
86	0xbc49679a	-0.012292767
87	0xbcecdd2f	-0.028914062
88	0xbcd6c4e4	-0.026216932
89	0xbd01b0c0	-0.031662703
90	0xbc95be06	-0.018279087
91	0xbd350c60	-0.044201255
92	0xbd4f372e	-0.050589733
93	0xbd2fe69a	-0.04294453
94	0xbd4656de	-0.048422687
95	0xbd153863	-0.036430728
96	0xbcbe9175	-0.023262719
97	0xbd83f862	-0.0644386
98	0xbd7ca2c5	-0.061678667
99	0xbc9bbd45	-0.01901115
100	0xbd6a1cc4	-0.05715634
101	0xbd35d71d	-0.0443946
102	0xbd80b9c8	-0.06285435
103	0xbd542771	-0.051795427
104	0xbd24f5b0	-0.04027337
105	0xbdd9e50c	-0.1063939
106	0xbc0a9820	-0.008459121
107	0xbd13324a	-0.03593663
108	0xbd42e731	-0.047583763
109	0xbc596f6e	-0.013271196
110	0xbbfaf38b	-0.007658427
111	0xbd3aa929	-0.04557148
112	0xbd1b06d9	-0.037848327
113	0xbd9a2e9a	-0.0752842
114	0xbd563ba9	-0.05230299
115	0xbc453efb	-0.0120389415
116	0xbca796ed	-0.02045771
117	0xbb9832f4	-0.004644746
118	0xbd30ac2f	-0.043132957
119	0xbbc27efa	-0.005935547
120	0xbd406138	-0.046967715
121	0xbc8693e3	-0.01642794
122	0x3ca3dea5	0.020003626
123	0xbce4debe	-0.027938243
124	0xbd03e89e	-0.032204263
125	0xbda3aadd	-0.07991574
126	0xbcf381bf	-0.029724954
127	0xbd40eda6	-0.04710164
128	0xbbd48727	-0.006485838
129	0xbd6fbeff	-0.058531757
130	0xbe097b6a	-0.13425985
131	0xbc8f16c9	-0.01746692
132	0xbda9a8d7	-0.08284157
133	0xbcf31064	-0.029670902
134	0xbd29e098	-0.041473955
135	0xbce49880	-0.027904749
136	0x3c93a0a9	0.018020945
137	0xbd5ce564	-0.0539297
138	0xbd7c52ba	-0.06160233
139	0xbc9da03e	-0.019241448
140	0xbd0d8353	-0.03454907
141	0xbca550bb	-0.020180097
142	0xbc7d2e9f	-0.01545301
143	0x3c5fc329	0.01365737
144	0xbcc1ae09	-0.023642557
145	0xbd56d2c7	-0.052447107
146	0xbbfe8887	-0.00776774
147	0xbd2ffd1e	-0.042966
148	0xbc827642	-0.01592553
149	0xbc55bebd	-0.013045964
150	0xbd716c3c	-0.05894111
151	0xbbeed9ba	-0.0072891386
152	0xbd61fdbe	-0.055173628
153	0xbc5c5b2a	-0.01344947
154	0xbdeea1e5	-0.11651973
155	0x3d61546c	0.05501215
156	0xbb1f9c3a	-0.0024354593
157	0xbc997c2c	-0.018735968
158	0x3d685d64	0.05672969
159	0xbc07af58	-0.008281551
160	0x3bb0545b	0.0053811497
161	0x3c481364	0.012211654
162	0xbd3d25e0	-0.0461787
163	0xbe070c84	-0.13188368
164	0xbd2fabbf	-0.0428884
165	0xbdebdd10	-0.11516774
166	0xbd8d3ec5	-0.06896738
167	0xbc660d24	-0.014041219
168	0xbe13244a	-0.14369312
169	0xbd84b4f5	-0.06479827
170	0xbda32273	-0.07965555
171	0xbe3267ac	-0.1742236
172	0xbda31f1f	-0.0796492
173	0x3ba104d2	0.0049139047
174	0xbe5e13bd	-0.21687217
175	0xbd9e2a52	-0.07722916
176	0x3babc46a	0.0052419202
177	0xbe9ab778	-0.302181
178	0xbd9f7165	-0.077853
179	0xbd805013	-0.06265273
180	0xbd03a332	-0.032138057
181	0xbd717091	-0.058945242
182	0xbd6efe61	-0.058348063
183	0xbe587f8b	-0.21142404
184	0xbd8bcbe8	-0.068260014
185	0xbe073a38	-0.13205802
186	0xbe8492b8	-0.25893188
187	0xbda33ebb	-0.07970949
188	0xbd8fcb3c	-0.07021186
189	0xbd60c071	-0.054871026
190	0xbd8ab476	-0.067727014
191	0xbd5a72c9	-0.053332124
192	0xbde46bda	-0.111533836
193	0xbd83c9da	-0.064349845
194	0xbd329439	-0.043598387
195	0xbe2d8b4f	-0.16947673
196	0xbd4991ba	-0.04921124
197	0xbd668294	-0.056276873
198	0xbe3d70fb	-0.1850013
199	0xbd1e7345	-0.03868415
200	0xbaa51128	-0.0012593614
201	0xbea405c7	-0.32035658
202	0xbd97c97e	-0.074114785
203	0xbd4f7f90	-0.050658762
204	0xbe359aec	-0.1773488
205	0xbd910e9c	-0.07082865
206	0xbd817a1b	-0.06322118
207	0x3cc0b657	0.023524446
208	0xbd569700	-0.0523901
209	0xbd953893	-0.07286181
210	0xbea6c044	-0.32568562
211	0xbd99e1d3	-0.07513776
212	0xbde5a961	-0.11213947
213	0xbeaeaa0f	-0.3411412
214	0xbda23cd6	-0.0792176
215	0xbdd95ecc	-0.10613784
216	0xbce86a84	-0.028371103
217	0xbdc04c82	-0.09389593
218	0xbce8b4cb	-0.028406521
219	0xbe007d96	-0.12547907
220	0xbdd2fa3a	-0.10301633
221	0xbdc275d6	-0.09495132
222	0xbdaa8405	-0.08325962
223	0xbd83bfb7	-0.06433051
224	0xbd6bcfbb	-0.057571154
225	0xbba6fbd2	-0.0050959373
226	0xbd9f54fd	-0.07779882
227	0xbc60e2c6	-0.013725942
228	0xbd022dcf	-0.031781968
229	0xbd890b40	-0.06691599
230	0xbd0a0ead	-0.033705402
231	0xbdce8889	-0.10084636
232	0xbd8f6b15	-0.07002846
233	0xbd6b2d19	-0.057416055
234	0x3d62ef5c	0.055404052
235	0x3c5e749b	0.013577606
236	0xbd2b7051	-0.04185516
237	0xbe1204f0	-0.14259696
238	0xbbe90bea	-0.007112016
239	0xbd8edb8b	-0.06975468
240	0xbdf8505c	-0.12124702
241	0xbc8ba704	-0.017047413
242	0xbd017774	-0.03160806
243	0x3d14453c	0.03619884
244	0x3d711cac	0.058865234
245	0x3d58982c	0.052879497
246	0x3d014ae2	0.031565554
247	0x3d99f6de	0.07517789
248	0x3d80b752	0.062849656
249	0x3d4e643d	0.050388563
250	0x3d19c008	0.03753665
251	0x3c2680dd	0.010162559
252	0x39f5d539	0.00046888905
253	0x3cd294a7	0.025705649
254	0x3da0e168	0.07855493
255	0x3cd40bc7	0.025884522

convt3.bias f4 [32]
0	0x3cd975b1	0.026545377
1	0x3d5f45b1	0.054509822
2	0x3da6cc0a	0.08144386
3	0x3e2af778	0.16695964
4	0x3cbf0c05	0.023321161
5	0x3e506a71	0.20353104
6	0x3d328e9f	0.043593045
7	0xbe6cb2ca	-0.23115078
8	0xbe4d7df7	-0.20067583
9	0x3e0f252f	0.13979028
10	0x3dba9bc6	0.09111743
11	0x3d7ef166	0.062241934
12	0x3e15f5c1	0.14644529
13	0x3ddbf4e5	0.10740069
14	0x3daf20dc	0.08551189
15	0x3e020639	0.12697686
16	0xbe449496	-0.19197306
17	0xbeb2df02	-0.34935766
18	0x3d9e550f	0.077310674
19	0x3d64c33e	0.05585026
20	0x3e104291	0.14087893
21	0x3e582ce1	0.2111087
22	0x3d44945a	0.04799304
23	0x3e1ed561	0.15511085
24	0x3d48a963	0.048989665
25	0x3d58d34e	0.05293589
26	0x3d9cdde9	0.076595135
27	0x3dcccce9	0.10000021
28	0x3e201dc8	0.1563636
29	0x3df1bd66	0.11803703
30	0x3d77d246	0.060503267
31	0x3dbe2c05	0.0928574

pos_output.weight f4 [1, 32, 2, 2]
0	0x3e8d54c1	0.27603725
1	0x3e4808b6	0.19534573
2	0x3e836be3	0.2566825
3	0x3e9c8e1e	0.30577177
4	0x3cef0cf6	0.029180985
5	0xbe2e8b83	-0.17045407
6	0x3e6bb159	0.23016872
7	0xbe1ef0a4	-0.15521485
8	0x3cda3e55	0.02664105
9	0xbe0a15e4	-0.13484913
10	0x3d8f5966	0.06999473
11	0x3d199bd4	0.037502125
12	0x3def1b2a	0.11675103
13	0xbd97cac0	-0.07411718
14	0x3dadb4a7	0.08481722
15	0xbdf35b7f	-0.11882686
16	0x3e36a3cc	0.17835921
17	0x3e830689	0.25590923
18	0x3e80879b	0.2510346
19	0x3e862c36	0.26205605
20	0xbc3cf44b	-0.011532853
21	0x3d60385f	0.05474126
22	0xbcf08c5a	-0.0293638
23	0x3e18bc39	0.14915551
24	0xbd506c19	-0.05088434
25	0xbd50f16c	-0.051011488
26	0x3d53928e	0.051653437
27	0x3dc2682d	0.09492526
28	0xbf085698	-0.5325713
29	0xbef405ea	-0.47660762
30	0xbed5049f	-0.41605088
31	0xbeda9f7e	-0.42699808
32	0x3c841309	0.016122358
33	0x3c9a5171	0.018837662
34	0x3d7ffd7f	0.062497612
35	0x3cd68c4f	0.026189951
36	0xbd88e8f6	-0.06685059
37	0x3d8d58a0	0.069016695
38	0x3d2f2e5b	0.042768817
39	0xbdcf2729	-0.10114891
40	0xbddb105f	-0.10696482
41	0xbe16cd24	-0.14726692
42	0xbdffad3a	-0.12484212
43	0xbe20cfdc	-0.15704292
44	0x3e8d4ff0	0.2760005
45	0x3ea45517	0.32096168
46	0x3e693edd	0.22777887
47	0x3e8e6978	0.2781484
48	0xbd7a7a2e	-0.061151676
49	0x3d711270	0.058855474
50	0xbd9fd9c1	-0.07805205
51	0xbdbb9c51	-0.09160674
52	0x3ea5509d	0.32288066
53	0x3e5c9f20	0.21545076
54	0x3e9ba59e	0.30399793
55	0x3ea1277a	0.3147543
56	0x3e28a86e	0.16470501
57	0x3e2a9bca	0.16660991
58	0x3e84af7f	0.25915143
59	0x3e7f2dda	0.24919835
60	0x3bf87225	0.0075819665
61	0x3e2b3f17	0.16723286
62	0x3e130371	0.14356782
63	0xbdcbb899	-0.099473186
64	0xbc1f23d9	-0.009713137
65	0x3cae25d1	0.021258267
66	0x3b29884a	0.0025868588
67	0xbcf4314e	-0.029808667
68	0xbe6b8dbf	-0.2300329
69	0xbe292cbe	-0.16520974
70	0xbee402ec	-0.4453348
71	0xbee8ece9	-0.45493248
72	0x3ddd730c	0.10812959
73	0x3e031856	0.12802252
74	0x3dd5694e	0.10420476
75	0x3de4ac3c	0.111656636
76	0x3d603957	0.054742184
77	0xbd7796dd	-0.06044661
78	0x3deb6ed4	0.11495748
79	0xbba0f8bb	-0.0049124635
80	0xbd5177d4	-0.051139668
81	0xbd8c4477	-0.06848996
82	0xbd584fcf	-0.052810486
83	0xbd72ecac	-0.05930774
84	0x3dc4d7f4	0.09611502
85	0x3da8264e	0.08210431
86	0xbdcc59f0	-0.09978092
87	0x3db894f8	0.090127885
88	0xbdcc8413	-0.09986129
89	0xbe206605	-0.15663917
90	0x3e545da6	0.20738849
91	0x3dc944cb	0.09827574
92	0x3dbc743f	0.0920186
93	0xbe4683b8	-0.19386184
94	0xbe135f57	-0.14391838
95	0x3dc6b60e	0.09702693
96	0xbe2e633f	-0.17030047
97	0xbddf7d37	-0.10912555
98	0x3dfec1b6	0.12439291
99	0x3dd8382a	0.105575874
100	0x3e506a1e	0.2035298
101	0x3dcd4fff	0.10025024
102	0x3e77fc2e	0.24217293
103	0x3e42b71b	0.19015162
104	0x3da26222	0.079288736
105	0x3dbed57d	0.093180634
106	0x3d9702e4	0.07373598
107	0x3d883bf4	0.0665206
108	0x3c55f6e0	0.013059348
109	0x3d225681	0.039633278
110	0xba4e8261	-0.00078777043
111	0x3d4832dc	0.04887663
112	0x3ea336b8	0.31877685
113	0x3ea09f83	0.31371698
114	0x3e8903fd	0.26760855
115	0x3e9cc3ff	0.30618283
116	0xbd9f2ff1	-0.07772816
117	0xbe2c81ee	-0.16846439
118	0xbdec814e	-0.115481004
119	0xbd512101	-0.051056866
120	0xbe757bc1	-0.2397299
121	0x3e3ca6c7	0.18422996
122	0xbe0f28fd	-0.1398048
123	0x3daf5a80	0.085621834
124	0x3e473481	0.19453622
125	0x3e974203	0.2954255
126	0x3d5cf33f	0.053942915
127	0x3e257409	0.16157545
